play_FlappyBird/results/flappybird/PPO_9/PPO_actor.pt (torch, 839200 bytes, 4 tensors)

l1.weight f4 [100, 2090]
00000000: d707 223d 0ab9 60bd 9385 c7bd e766 c2bd
00000010: 8bec e4bd d8e8 2fbd b5ee 4dbd 244a a9bd
00000020: e64d a8bd 035c 55be 71b9 7cbe f0aa 933d
00000030: 89ec 99ba 1e3c 4c3e 8837 07be 4f6e 9bbc
00000040: 9898 be3d 79b1 093d 9b8d 8b3c 6764 f3bc
00000050: cf1f ac3c 0ac7 bdbd 181d 1f3d a20d 3bbe
00000060: ea7e 683d ee8a 0fba 620a 5ebc 889b a3bd
00000070: 5488 77bd 214e 0cbe 0bea 69bc 730a aebe
00000080: a1da d8bb 7cca d5bd 4020 19be 4ae1 11be
00000090: 57cc 3fbd 0a07 b5bc 6349 2b3d 3ab5 31bd
000000a0: 71ca b0bd 5b2d c2bd 046a 12be 5d89 79bd
000000b0: e582 3dbd 42fc 7bbd 06f1 b6bd ab09 73be
000000c0: b325 05be ef96 1ebb 7272 52bc dc8e 493e
000000d0: 9088 05be 526a 1fbd 76ee 9c3d a26f b43c
000000e0: b297 243d 6199 dbbc 1e55 4d3d 9e1e c0bd
000000f0: f0f8 e33c 97b0 48be 5ed7 5e3d 8875 aa3a
00000100: d29e c3bb e514 90bd 46ad 0dbd 11ac 0fbe
00000110: b144 b7bc 56b7 aebe a430 ca3b c2f9 bbbd
00000120: b9b2 14be 83a7 fcbd 6c68 96bd 59c6 57bd
00000130: d1ca 9e3d 53bc 87bd 6583 a1bd b7ab c1bd
00000140: af6a 0dbe a9e4 0abd 1b1b 4bbd 8435 acbd
00000150: ea5d 4bbd b840 96bd 1057 d7bc ec13 bb3d
00000160: 45ae a13a dc62 303e 7446 06be 913a 2dbd
00000170: ea54 b53d 0b7c d13b 3c32 763c f3d6 f3bc
00000180: c005 b03c 0213 b5bd 0001 4a3d de18 55be
00000190: 0a5f 823d 9f6e c0bc 6f98 bebc c341 afbd
000001a0: cb00 87bd dba7 02be 73ba c3bc d688 a5be
000001b0: 891d a4bb 1ea7 c0bd e2e8 15be 09df 05be
000001c0: 8095 80bd 2622 abbc 232e 933d 9cf2 2dbd
000001d0: 9f9d b3bd 05b5 61bd 71ef 1dbe 261c 85bd
000001e0: 5315 3dbd d67e 2bbd 8b06 6ebd 9a9f 84be
000001f0: d9ca 9bbe 660f c5bd cdf4 26bc 7a6f 423e
00000200: 4122 17be a459 9cbc ea85 7b3d 5586 703c
00000210: d565 953c 116c 99bc 5941 b63c dcc2 b1bd
00000220: 6e71 6a3d 773d 4cbe 32f8 2f3d de22 0e3b
00000230: f097 ffbb d2ef 6ebd 865b 87bd 1e39 16be
00000240: 9383 83bc b5f5 aabe 2f78 7cbc 20d6 c9bd
00000250: ff98 dabd 7eb5 1bbe 300d aebd ccf6 07bd
00000260: 0f30 343d 0037 90bd 67a0 d2bd 5b46 ebbd
00000270: b7cd eebd bc3b 78bd f213 01bd 4cde 50bd
00000280: ad9c a6bd 39dc 8abe bf20 42be 23d9 41bd
00000290: f543 c9bc 1a3d 363e 12fe dabd c0aa 3dbd
000002a0: d3b5 613d e511 903b dc33 413d 07d4 56bc
000002b0: fc2f b23c 4cdd adbd 0cae 9f3c 5937 66be
000002c0: 26ea 323d 27c2 ffbb cbd6 04bd 4fb5 b4bd
000002d0: 8ec9 66bd ee90 22be 606e b33b 4d7f a8be
000002e0: 9cd8 f5bc ccf1 a4bd 2746 18be da26 0ebe
000002f0: eadc 39bd bbf9 41bd 0dc0 843d 68f2 99bd
00000300: 3bfd d6bd c544 a9bd 494e 0bbe 3a00 78bd
00000310: 5d07 4dbd fa9d 93bd cc68 9bbd ac2a 25be
00000320: 5b1e b0bd 4229 ad3c 7366 e7bb 14d9 393e
00000330: ac0a 0fbe 22d7 b7bc e535 5d3d 93b1 333d
00000340: 372c 183d 91a2 dcbc 351a 593c 8ce9 d1bd
00000350: 40a9 323d 5b27 42be 6eb8 4c3d ce92 15bd
00000360: fa5d 49bb ab59 a0bd 5d6f 21bd 4a6c 16be
00000370: 0f93 f33a 59d9 adbe f7bf 20bd 3857 b5bd
00000380: 9148 07be 2dc1 01be 7a96 abbd b29d c2bc
00000390: 1ffa 0f3d 563a 90bd eba9 c4bd 717f e9bd
000003a0: 4730 e8bd 4a34 73bd 270c 0dbd 9cac a6bd
000003b0: 201a 52bd a473 3dbe d41d 9cbd c4bf 8b3d
000003c0: bf0d e8bc 725f 453e fbe5 0bbe 678e bbbc
000003d0: 220b 9f3d af46 513d a88e a63d 90be e3bb
000003e0: f679 4b3c 4c31 e0bd 60c7 6d3d 4bfd 5ebe
000003f0: 1aca 303d b235 e5bb c4a9 7dbc b290 80bd
0.039558258 -0.054863967 -0.09742274 -0.09492283 -0.111779295 -0.042946666 -0.050276477 -0.08266094
-0.08217983 -0.20835881 -0.24680115 0.07210338 -0.0011743467 0.19944808 -0.13204777 -0.018973498
0.09306449 0.033616517 0.017035296 -0.029710962 0.021011261 -0.09266479 0.038846105 -0.1826692
0.05676166 -0.0005475719 -0.01355228 -0.079886496 -0.060432747 -0.13701679 -0.014276992 -0.33992347
-0.0066178595 -0.104390115 -0.14953709 -0.14246097 -0.046825733 -0.022098083 0.041818034 -0.04338572
-0.08632363 -0.09481307 -0.14298254 -0.060922015 -0.04626741 -0.06151987 -0.0893269 -0.23734157
-0.13002662 -0.002419885 -0.012844669 0.19683403 -0.13040376 -0.038919754 0.0766267 0.022025887
0.04018373 -0.026806535 0.050130002 -0.0938084 0.027828664 -0.19598614 0.05440461 0.0013004998
-0.0059698606 -0.07035235 -0.034589075 -0.14030482 -0.022371622 -0.3412425 0.006170349 -0.09178497
-0.14521302 -0.12336638 -0.07344136 -0.052679393 0.07753528 -0.06627717 -0.0788639 -0.0945658
-0.13810228 -0.033909474 -0.049586397 -0.08408645 -0.04965011 -0.07336563 -0.026286632 0.09134659
0.0012335262 0.17225212 -0.13112813 -0.04229218 0.08854087 0.006392961 0.015026625 -0.029765582
0.021487117 -0.08841516 0.04931736 -0.20810267 0.063657835 -0.023490248 -0.023266045 -0.08557465
-0.06591948 -0.12759344 -0.023892617 -0.3233096 -0.0050084037 -0.09406875 -0.14639619 -0.13073362
-0.06278515 -0.020890307 0.07186534 -0.0424677 -0.08770298 -0.055104274 -0.15423371 -0.064995095
-0.046162914 -0.041869007 -0.05811171 -0.25903016 -0.30428198 -0.09622078 -0.010190201 0.18987837
-0.1475916 -0.019085713 0.061407007 0.014680465 0.018237034 -0.018728288 0.022247957 -0.086797446
0.05723708 -0.19945322 0.042961307 0.0021688263 -0.007800095 -0.05833418 -0.066092536 -0.14670226
-0.01605395 -0.33390585 -0.015409513 -0.09855294 -0.10673713 -0.15205953 -0.08498609 -0.03319435
0.043991145 -0.070417404 -0.102845006 -0.114880286 -0.11660331 -0.060603842 -0.031513162 -0.05099325
-0.08135352 -0.27121142 -0.18957804 -0.04732622 -0.024568537 0.17796746 -0.10692991 -0.046305418
0.05510504 0.0043966644 0.047168598 -0.013112075 0.021751396 -0.08489475 0.019492172 -0.22482051
0.043680333 -0.007805127 -0.032431405 -0.08823644 -0.05634456 -0.15875599 0.005475804 -0.32909623
-0.030010514 -0.080539316 -0.14870511 -0.13882008 -0.045376696 -0.047357302 0.06481943 -0.075169384
-0.10497519 -0.0826507 -0.13604082 -0.06054709 -0.05005585 -0.07207866 -0.07588348 -0.1612956
-0.0859954 0.021137837 -0.0070617734 0.18149215 -0.13968915 -0.02244145 0.054006476 0.04387052
0.03715154 -0.026932986 0.013250877 -0.10249624 0.04361844 -0.18960325 0.049980573 -0.036516957
-0.003072618 -0.07829603 -0.039412845 -0.14689746 0.0018583256 -0.33954886 -0.039245572 -0.08854526
-0.13211276 -0.12671347 -0.083783105 -0.023756836 0.035150643 -0.07042377 -0.09602722 -0.11401261
-0.11337333 -0.05937604 -0.034435418 -0.081383914 -0.051294446 -0.18501145 -0.07622877 0.06823686
-0.028326867 0.19274691 -0.1366195 -0.022895051 0.07765795 0.0510928 0.08132678 -0.006950207
0.0124192145 -0.10946903 0.058051467 -0.21776311 0.04316149 -0.0069949264 -0.01548237 -0.062775984

l1.bias f4 [100]
00000000: cc47 623f 1023 5ebe 5678 b2bd eb93 11be
00000010: d5ef 39be f276 4dbe ddfa 13be ca81 06be
00000020: 7c4f 82be e419 87bd c954 3d3f ba83 e83e
00000030: 1afd 513f ff19 dc3e f4a7 ecbd 7ac3 0cbe
00000040: a74b 30be 0c2e 91bd dc55 35bd 1a97 263f
00000050: 4f03 29bd 6636 ee3e 3040 023f 2eaa 33be
00000060: a9f6 46bd e845 4b3f 29b0 603f 8e12 433f
00000070: 7293 e7bd 0ebe 11be 311e d2bd 20a0 87bc
00000080: 3964 9dbd b1e2 693f de34 3abd dc8d 35bd
00000090: 8b36 28be 2cf3 d23e 7a98 42be cb35 3cbe
000000a0: d1dc 693f 9894 933f 175d 4bbe da50 5ebd
000000b0: 74d0 2bbe 12ce 22be f10e abbc 2d0a 65be
000000c0: 9717 3cbd 3c8d 1e3f 90d6 22be 7c19 63be
000000d0: cbec a6bd 5791 9abe ef7d 2f3f 2619 bebd
000000e0: 7899 18be 9340 0bbe 58f5 1dbd 7168 233f
000000f0: b458 243f af5e 343f e536 1c3f 09b8 26be
00000100: 7921 563f b45c 30be 057c f8bd 2308 c9bd
00000110: 65de 28bd 3eb4 2f3f 4959 5abd 6d4f 47be
00000120: c56d 35be 43b5 21be c184 0bbe 7c5d 9dbd
00000130: d3d5 19be 6614 e73e c39c 23be 7451 e53e
00000140: 5d0d 2ebe 4d0e 7dbe b72b f2bd ba36 0bbe
00000150: 55e4 6abe 7a12 173f 4297 3bbe 6a19 42be
00000160: c45f b1bd bf25 103f ecbc 55be f217 42be
00000170: 6598 6ebe 4a18 433f 73b9 543f e6b7 1fbe
00000180: a341 57bd 5ca7 143f 8e85 2ebd 8074 8bbd
0.88390803 -0.21693063 -0.087143585 -0.14216582 -0.18157895 -0.20064905 -0.14451165 -0.13135448
-0.25451267 -0.06596735 0.73957497 0.45413 0.8202683 0.42988583 -0.11555472 -0.13746443
-0.17216359 -0.07088861 -0.044271335 0.6507431 -0.04126292 0.46525878 0.5087919 -0.17545387
-0.048575077 0.79403543 0.877688 0.7620019 -0.1130742 -0.14232656 -0.10259665 -0.016555846
-0.076851316 0.9136153 -0.045460574 -0.04432474 -0.16427056 0.4120115 -0.19003478 -0.18379895
0.91352564 1.1529722 -0.1985973 -0.054276325 -0.16778737 -0.15898922 -0.020881148 -0.22367163
-0.045920935 0.61934257 -0.15902162 -0.2217769 -0.081506334 -0.3018901 0.68551534 -0.092821404
-0.14902294 -0.13598852 -0.038564056 0.6383124 0.6419785 0.70456976 0.6102126 -0.16281141
0.83644825 -0.17222863 -0.1213303 -0.09816005 -0.041227717 0.686344 -0.053307805 -0.19463892
-0.17717655 -0.15791802 -0.1362486 -0.07683846 -0.15022974 0.4513275 -0.15977769 0.44788706
-0.16997285 -0.24712487 -0.11824744 -0.13595095 -0.22938664 0.5901257 -0.18319419 -0.18955007
-0.08660844 0.56307596 -0.20872849 -0.18954447 -0.23300321 0.7620894 0.83095473 -0.15597495
-0.05255283 0.5806787 -0.042607836 -0.0680933

l2.weight f4 [2, 100]
00000000: 5a05 b6be 2908 4b3d d6e6 1a3e 1a17 693e
00000010: 0d37 04bc e6d6 aa3c 1f50 a93d 8f99 a83e
00000020: 2c31 8e3b 206b 583d 8771 bbbe 4bc9 31bd
00000030: 37af abbe 0ab8 afbd 366c b8bc 3085 c43d
00000040: fabf 093e fb9e 7a3d 7264 80bb 9556 37be
00000050: b335 ee3d 7122 a8bd 4f13 83be ac98 8f3c
00000060: 837e 0b3e d42a adbe 619b 06bd cd03 3cbe
00000070: 49fe 413e f410 2f3d 781e 4c3e f960 8cbe
00000080: 9bbb 093e 5120 67bd 6b9a eabb d05e 9b3d
00000090: b95e 473e 54e5 d03c 75bd 90bc 5178 ad3d
000000a0: 5255 60be 4094 efbe 0b76 9b3e 6f74 5d3e
000000b0: 9fa1 d73b 55b0 e3bc 26da b53d 8ce5 fc3c
000000c0: 9d40 2f3e 8300 1fbe 419f 82bc 9288 29bd
000000d0: fb89 a73d 19a1 9ebb e3a2 493e 18a1 f43d
000000e0: 8cdc 173d be8c 53be 544a 7f3d 2c1a 36be
000000f0: c899 afbd 604b 8dbd bee9 dcbe 52ff 7dbc
00000100: 0b09 29be d9dd 033d 40b7 bd3d f76e 573e
00000110: e1af 15bd f81f 82bd 71d9 b9bc c4b0 6f3c
00000120: be4c d63e 464f 983d 9053 ac3c b7bb b0bd
00000130: 97ca 6b3d 89ad a8bd 178f fb3d f904 70be
00000140: 0e92 993c 2638 443d d2d0 833d f4c0 f23d
00000150: 3665 853d 3699 1fbe 8876 353c 2212 b33d
00000160: 6a84 463e 277a 3cbe 90f9 113d c8c3 2d3d
00000170: 7d6c 523d d2dc 6ebe ac86 66be bfe6 00bd
00000180: 19fb 61bd 8df0 293d 3f2d 62bd f239 233e
00000190: 85f5 d73e 35f0 e6bd 738a 4bbd d53e 26be
000001a0: fe31 05bb 1d61 55bd 7a9d 193c e9f9 50be
000001b0: ce2f 4bbd 689c c7bb c902 c53e a782 563d
000001c0: ac2e 6e3e 910b dc3d 803f 96bd 9ab4 d3bd
000001d0: b79d 48be ea88 7abd 992f 43bb 56c3 c33d
000001e0: 7c6f e6bc df3f 443e 0ff7 643e 1c69 e23b
000001f0: 2ca8 a2bd e4f6 a33e 0c1a 603e 9168 243e
00000200: 93c9 a4bc 0f04 a1bd bc87 44be 7303 903e
00000210: 2424 61be d961 083e 666d 01bb c08b d1bb
00000220: 5d61 70bd dc71 d03c 70fe 05bd 63bd 0abd
00000230: f0c6 913e 9b81 013f ae9c 91be e1d7 9fbd
00000240: fa83 90bd c5f0 573e e2f4 75bc 9a0b f93c
00000250: f37d 43be fdc2 5f3e 4309 b5bd 8c7a dbbc
00000260: 25f8 8abd defb a0bd 3190 4ebe 052c f5bd
00000270: 4e8e 3cbe a7d1 e03d a9b8 49bd 4a50 023e
00000280: b42d de3d cae1 9a3d 9624 ab3e bdde 7f3d
00000290: 3e92 9f3e f499 0e3d ae1d 353d b0e1 00be
000002a0: 8b44 3ebd b295 3dbd 38d8 bd3d fb3d afbb
000002b0: 01cc dbbe 87e0 08bd 4ff3 c0bd 375f c7bc
000002c0: 6384 243d e974 393e 2737 87bd 7e2a bb3d
000002d0: 8315 30bd afd9 88bd ffc8 a8bd e6d3 d6bd
000002e0: f908 88bd 7dbd d13d 4912 f43c c7be 3bbe
000002f0: 800d 42be 15ef 943e a358 fb3c 9fd8 973c
00000300: fb99 99bc c9ef 813e 83b4 343e da21 93bd
00000310: 7acf 8e3d 3643 fe3c 1bd3 2ebd f376 a7bd
-0.35550958 0.04956833 0.1512712 0.22762719 -0.008069766 0.020854425 0.08267235 0.32929656
0.004339358 0.052836537 -0.36610052 -0.04340486 -0.33532116 -0.085800245 -0.022512536 0.09595716
0.1345214 0.06118677 -0.003918224 -0.17904122 0.11631336 -0.08209694 -0.2560067 0.017528854
0.13622479 -0.33821738 -0.032863025 -0.18360825 0.18944658 0.042740777 0.19933498 -0.27417734
0.13450472 -0.056427304 -0.0071595213 0.075864434 0.19469728 0.025499977 -0.017668465 0.08470214
-0.21907547 -0.46792793 0.30363497 0.21626447 0.006580546 -0.027794043 0.08879499 0.030871175
0.17114492 -0.15527539 -0.015945079 -0.04139001 0.081806146 -0.0048409817 0.19691043 0.11944789
0.037075564 -0.20659158 0.062326744 -0.17783421 -0.08574253 -0.06899142 -0.4314708 -0.015502768
-0.16507356 0.032193992 0.09263468 0.21038423 -0.036544684 -0.06353754 -0.022686692 0.014629547
0.41855425 0.07436995 0.02103594 -0.08629554 0.05756625 -0.08236224 0.122831516 -0.23439397
0.018746402 0.04790511 0.06436314 0.11853209 0.06513445 -0.15585789 0.011075623 0.08743693
0.1938645 -0.18405972 0.035638392 0.04242304 0.051372994 -0.23326424 -0.2251231 -0.031470057
-0.055171106 0.041489173 -0.05521893 0.15940073 0.42179504 -0.112762846 -0.049692582 -0.16234906
-0.0020323987 -0.052094568 0.009375924 -0.20407833 -0.049606137 -0.006091643 0.38478687 0.052370694
0.23259991 0.107443936 -0.073363304 -0.103371814 -0.19591413 -0.061165728 -0.002978301 0.09558742
-0.028129332 0.1916499 0.2235987 0.0069095027 -0.079422325 0.320243 0.21884936 0.16055514
-0.02011565 -0.07862102 -0.19192404 0.28127632 -0.21986443 0.13318576 -0.0019749044 -0.0063948333
-0.058686603 0.025444917 -0.032713354 -0.03387202 0.2847209 0.5058839 -0.2843985 -0.078048475
-0.070564225 0.2108794 -0.015011998 0.03040104 -0.19091015 0.21851726 -0.08839657 -0.026791833
-0.06785611 -0.0786054 -0.20172192 -0.11971287 -0.1841366 0.10977488 -0.04924837 0.1272594
0.10848561 0.07562597 0.3342635 0.06246828 0.3116626 0.03481479 0.044217758 -0.12586093
-0.046452086 -0.04628534 0.09269756 -0.005347965 -0.4292908 -0.03341725 -0.094214074 -0.024337394
0.040165316 0.18111004 -0.06602316 0.09138964 -0.042989265 -0.06682145 -0.08241462 -0.10489635
-0.066423364 0.1024122 0.029793875 -0.18334495 -0.18950462 0.29088655 0.030681914 0.01853591
-0.018750181 0.25378254 0.17646985 -0.07184191 0.06973167 0.031037908 -0.042681795 -0.08176985

l2.bias f4 [2]
00000000: d715 d0be e4df 043f
-0.40641662 0.5190413
