play_FlappyBird/results/flappybird/PPO_8/PPO_critic.pt (torch, 838824 bytes, 3 tensors)

l1.weight f4 [100, 2090]
-0.04048778 -0.041760065 -0.049927317 -0.04952552 -0.05229225 -0.08521223 -0.043146275 -0.095632784
-0.15013312 -0.13289598 -0.13666211 -0.14452665 -0.09798717 -0.14047183 0.016353332 0.0028566117
-0.035587262 -0.041575626 -0.018187797 -0.0739114 -0.054678325 -0.025150891 -0.009996192 -0.06928644
-0.05856496 -0.06477497 -0.100795925 -0.031321477 -0.043472897 -0.054315176 -0.109862834 -0.2750606
-0.20490573 -0.2729833 -0.28070188 -0.21836966 -0.13899554 -0.1391463 -0.060638316 -0.03790014
-0.0863926 -0.049277022 -0.07602631 -0.06442279 -0.043492306 -0.07898728 -0.14914475 -0.17272542
-0.1334857 -0.12745614 -0.07831978 -0.14887838 0.0035353715 -0.024118913 -0.008953874 -0.030880323
-0.012416989 -0.09146593 -0.06242715 -0.031736754 -0.017689265 -0.05387633 -0.082571894 -0.08285931
-0.1010254 -0.024668163 -0.022546923 -0.07709056 -0.08776094 -0.24925463 -0.23935841 -0.2655446
-0.24579123 -0.21003878 -0.13490747 -0.17495695 -0.06754391 -0.07026149 -0.07335392 -0.05077821
-0.083227225 -0.10138975 -0.057719328 -0.09032605 -0.12167124 -0.13459753 -0.125181 -0.1349794
-0.087043166 -0.14798145 0.008023592 -0.005846456 -0.025667746 -0.027508875 -0.006848313 -0.05474251
-0.044938784 -0.04302866 -0.015481579 -0.058955915 -0.079059154 -0.09302704 -0.08997688 -0.035595488
-0.011195212 -0.06400945 -0.108868614 -0.25707152 -0.19623904 -0.26571405 -0.24687496 -0.19884837
-0.13485081 -0.16395062 -0.062013403 -0.06905665 -0.08298251 -0.083294034 -0.045432806 -0.06753916
-0.052266 -0.06859078 -0.1359983 -0.16604093 -0.16158986 -0.13708164 -0.09796556 -0.13756262
-0.0015760324 -0.020584276 -0.025179844 -0.009562512 -0.023265878 -0.08453202 -0.052208953 -0.066355884
-0.0039715543 -0.040902536 -0.08482798 -0.0714607 -0.07535367 0.0016598923 -0.03151322 -0.07380085
-0.0800929 -0.24390112 -0.23632352 -0.28553295 -0.24341062 -0.18165958 -0.14478475 -0.16458264
-0.051578753 -0.06004452 -0.05993384 -0.061853163 -0.06862585 -0.06415744 -0.029419744 -0.0914652
-0.11713147 -0.13059884 -0.1531723 -0.13945048 -0.09651426 -0.14733468 -0.0034290596 -0.018778749
-0.0022195377 -0.047169708 -0.0142361745 -0.08303466 -0.019448439 -0.05149159 -0.0237672 -0.057888124
-0.061092943 -0.09965474 -0.10392341 -0.028313287 -0.016502172 -0.08541681 -0.10203764 -0.25264806
-0.20043217 -0.27429357 -0.24291125 -0.1828922 -0.13652347 -0.14191973 -0.0519059 -0.07782165
-0.06321174 -0.082591824 -0.061320856 -0.09137402 -0.062044322 -0.07410329 -0.1414965 -0.16765715
-0.1514612 -0.15650177 -0.08205471 -0.141203 -0.014210874 -0.024810692 -0.006066417 -0.037591662
-0.020192096 -0.0939971 -0.038272247 -0.030428782 0.016030261 -0.0489316 -0.059295624 -0.07482158
-0.099443406 -0.0037295367 -0.004434772 -0.08066003 -0.10165523 -0.242418 -0.19963361 -0.27681
-0.25645104 -0.20352098 -0.11728933 -0.14061889 -0.064763404 -0.065847255 -0.04530228 -0.06278347
-0.0821555 -0.08411911 -0.03729025 -0.066861145 -0.12191155 -0.14953436 -0.1437907 -0.14395994
-0.10097095 -0.13902654 0.0056220335 -0.013312786 -0.023818925 -0.012666513 0.1580351 -0.0054251794
-0.056246836 -0.047801603 0.004797352 -0.040959563 -0.06887427 -0.08569758 -0.074251495 -0.0117624905
00000000: 84d6 25bd 9a0c 2bbd 9680 4cbd 46db 4abd
00000010: 6630 56bd c083 aebd 26ba 30bd 1fdb c3bd
00000020: 7fbc 19be e215 08be 27f1 0bbe cbfe 13be
00000030: 7fad c8bd d9d7 0fbe 6cf7 853c fe35 3b3b
00000040: f3c3 11bd 344b 2abd 93fe 94bc dc5e 97bd
00000050: 61f6 5fbd 3e09 cebc 11c7 23bc 0de6 8dbd
00000060: d0e1 6fbd bda8 84bd 186e cebd f34a 00bd
00000070: a310 32bd 9779 5ebd c4ff e0bd bed4 8cbe
00000080: cfd2 51be 78c4 8bbe 28b8 8fbe 4c9c 5fbe
00000090: d954 0ebe 5e7c 0ebe e25f 78bd 2d3d 1bbd
000000a0: 9aee b0bd b4d6 49bd afb3 9bbd 19f0 83bd
000000b0: fd24 32bd 15c4 a1bd 67b9 18be efde 30be
000000c0: 7ab0 08be dd83 02be 1f66 a0bd 9373 18be
000000d0: b1b1 673b 0795 c5bc 45b3 12bc bbf8 fcbc
000000e0: a070 4bbc 7d52 bbbd 9cb3 7fbd 66fe 01bd
000000f0: 14e9 90bc 6dad 5cbd 741b a9bd 24b2 a9bd
00000100: 68e6 cebd e314 cabc 53b4 b8bc a8e1 9dbd
00000110: 02bc b3bd 9b3c 7fbe 5f1a 75be 76f5 87be
00000120: b2b0 7bbe 6814 57be 2f25 0abe ea27 33be
00000130: 7654 8abd 42e5 8fbd 943a 96bd d0fc 4fbd
00000140: 0973 aabd 6ea5 cfbd 1a6b 6cbd ddfc b8bd
00000150: c52e f9bd efd3 09be 732f 00be 0a38 0abe
00000160: b043 b2bd 7388 17be 6275 033c a193 bfbb
00000170: 2a45 d2bc 4b5a e1bc d067 e0bb af39 60bd
00000180: bb11 38bd d23e 30bd 73a6 7dbc c27b 71bd
00000190: c4e9 a1bd f684 bebd cc45 b8bd 93cc 11bd
000001a0: 1f6c 37bc 6317 83bd 82f6 debd e19e 83be
000001b0: e3f2 48be ac0b 88be cacc 7cbe e89e 4bbe
000001c0: 5516 0abe ace2 27be c401 7ebd 936d 8dbd
000001d0: bcf2 a9bd 1096 aabd c017 3abd f951 8abd
000001e0: e014 56bd 5379 8cbd 2343 0bbe a206 2abe
000001f0: d077 25be 215f 0cbe 2ba2 c8bd 37dd 0cbe
00000200: df92 ceba 5ba0 a8bc f645 cebc 15ac 1cbc
00000210: 1598 bebc 201f adbd 0ed9 55bd 98e5 87bd
00000220: d023 82bb 6b89 27bd 4bba adbd fd59 92bd
00000230: 0653 9abd be90 d93a 0214 01bd e624 97bd
00000240: bf07 a4bd 37c1 79be cbfe 71be 6031 92be
00000250: a240 79be f804 3abe 7442 14be 5a88 28be
00000260: 3e44 53bd 3ef1 75bd 307d 75bd be59 7dbd
00000270: b68b 8cbd fa64 83bd ad01 f1bc 1b52 bbbd
00000280: a0e2 efbd b4bb 05be 33d9 1cbe 1bcc 0ebe
00000290: 45a9 c5bd e7de 16be 13ba 60bb e4d5 99bc
000002a0: aa75 11bb 0635 41bd d83e 69bc 130e aabd
000002b0: 5552 9fbc d8e8 52bd 6eb3 c2bc 191c 6dbd
000002c0: 983c 7abd c917 ccbd ccd5 d4bd 44f1 e7bc
000002d0: 902f 87bc 02ef aebd 1cf9 d0bd 165b 81be
000002e0: 173e 4dbe 3570 8cbe babd 78be 1848 3bbe
000002f0: cfcc 0bbe 6853 11be 489b 54bd f560 9fbd
00000300: 2875 81bd e725 a9bd 942b 7bbd 4d22 bbbd
00000310: 3022 7ebd 77c3 97bd 75e4 10be 51ae 2bbe
00000320: a518 1bbe 0042 20be 4d0c a8bd 8597 10be
00000330: bad4 68bc cb3f cbbc cbc8 c6bb b7f9 19bd
00000340: e569 a5bc 8d81 c0bd 5cc3 1cbd c845 f9bc
00000350: e551 833c 806c 48bd f8df 72bd 0e3c 99bd
00000360: fca8 cbbd 3e6b 74bb 9051 91bb 1631 a5bd
00000370: 9e30 d0bd 6d3c 78be c16c 4cbe 0aba 8dbe
00000380: 8d4d 83be ce67 50be 6335 f0bd 66fe 0fbe
00000390: ada2 84bd edda 86bd e28e 39bd 9f94 80bd
000003a0: 2541 a8bd a446 acbd a9bd 18bd 7fee 88bd
000003b0: c3ac f9bd 891f 19be df3d 13be 3c6a 13be
000003c0: dcc9 cebd f95c 0ebe 0939 b83b df1d 5abc
000003d0: e81f c3bc 3587 4fbc f4d3 213e b4c5 b1bb
000003e0: 1563 66bd 9dcb 43bd 1b33 9d3b 37c5 27bd
000003f0: f40d 8dbd 3682 afbd 2b11 98bd 76b7 40bc

l1.bias f4 [100]
-0.31369302 -0.02730927 0.10622564 -0.011475851 -0.021284921 -0.02209453 -0.027843608 -0.0066372785
-0.038569357 -0.0052282107 -0.00897226 -0.014964687 -0.03330433 -0.075912274 -0.011766538 -0.08858615
-0.01799999 -0.02881145 -0.022798652 -0.06295759 -0.020602118 -0.020035457 -0.022130022 0.18326834
-0.021301515 -0.031035876 -0.028199052 -0.05076252 -0.017951624 -0.004065055 -0.019465059 -1.1283074e-05
-0.029662574 -0.024290595 -0.02351105 -0.07038729 -0.18175629 -0.022792896 -0.006245347 0.21655142
-0.27701893 -0.039013505 -0.025348617 -0.031128185 0.2011648 0.040882535 -0.020616233 -0.00015354932
0.0579892 -0.020285254 -0.019968918 -0.3331949 -0.04402013 -0.00082090584 -0.007779541 -0.020872636
-0.003650159 -0.025008569 -0.021257112 -0.020553771 -0.046581622 -0.019393211 0.45954308 -0.43198484
-0.022672985 0.0025205328 0.11329111 -0.020913428 -0.03648352 -0.13163161 -0.020668495 -0.0157673
-0.02528647 -0.037697643 -0.015170348 -0.0062816376 -0.020193191 -0.014095714 -0.011735158 -0.04208085
-0.03240715 -0.08861483 -0.019539954 -0.025532262 -0.025506372 -0.016354926 -0.32360962 -0.04149666
-0.029111922 -0.6289148 -0.07070549 -0.014025784 -0.015191432 -0.038292326 -0.0179228 -0.051878683
0.097771145 -0.009220935 -0.012252907 -6.837631e-05
00000000: 5f9c a0be b1b7 dfbc d48c d93d 3505 3cbc
00000010: b75d aebc 96ff b4bc 4718 e4bc 877d d9bb
00000020: e7fa 1dbd 6951 abbb 6300 13bc 722e 75bc
00000030: 1f6a 08bd e577 9bbd 70c8 40bc a86c b5bd
00000040: b774 93bc fd05 ecbc 3dc4 babc e9ef 80bd
00000050: c6c5 a8bc 6621 a4bc 054a b5bc b2aa 3b3e
00000060: 8480 aebc f33e febc b301 e7bc 5cec 4fbd
00000070: 490f 93bc 2734 85bb 3075 9fbc 6f4c 3db7
00000080: edfe f2bc 12fd c6bc 3f9a c0bc 3627 90bd
00000090: 521e 3abe 2bb8 babc c5a5 ccbb a8bf 5d3e
000000a0: 6dd5 8dbe a0cc 1fbd e7a7 cfbc 8900 ffbc
000000b0: 25fe 4d3e 7274 273d 60e3 a8bc 1502 21b9
000000c0: 1586 6d3d 432d a6bc db95 a3bc 8698 aabe
000000d0: 744e 34bd 0f32 57ba 85eb febb 17fd aabc
000000e0: 8237 6fbb c5de ccbc 6523 aebc 6260 a8bc
000000f0: 5fcc 3ebd 83de 9ebc 3b49 eb3e 1e2d ddbe
00000100: b2bc b9bc 862f 253b 2b05 e83d a352 abbc
00000110: be6f 15bd 70ca 06be fa50 a9bc 6d2a 81bc
00000120: 9225 cfbc d868 1abd 0d8d 78bc 32d6 cdbb
00000130: 316c a5bc b6f1 66bc d244 40bc f85c 2cbd
00000140: 5cbd 04bd b17b b5bd 4112 a0bc 0929 d1bc
00000150: bdf2 d0bc c4fa 85bc 29b0 a5be 67f8 29bd
00000160: 207c eebc 8f00 21bf 0ace 90bd 67cc 65bc
00000170: 7ce5 78bc 6ad8 1cbd d6d2 92bc be7e 54bd
00000180: 3d3c c83d 6813 17bc 6bc0 48bc 4065 8fb8

l2.weight f4 [1, 100]
-0.0570989 0.05365336 0.058252234 -0.007263632 0.074969806 0.051698584 0.005438955 0.00077966443
-0.02017584 0.00044642788 0.04300557 0.006333171 0.020103281 0.0024572152 0.083084434 -0.00021167158
0.04432187 0.07275915 -0.010982237 0.001677905 -0.033690155 0.07271813 0.011727217 -0.081076674
0.03448095 0.004931359 0.02087755 0.08121838 -0.08508278 -0.0012267207 -0.0046637156 -5.287905e-06
0.010690597 -0.07096925 -0.039998148 0.1106956 -0.055394158 -0.0020913684 0.021701444 -0.15784532
-0.17564362 0.041619353 0.08815583 0.031761665 -0.060217157 0.028394178 -0.0032491274 -7.635976e-05
0.057561785 0.008379313 0.1666807 -0.061322607 -0.015116445 0.0045371153 -0.02678245 0.04261187
0.083331615 -0.04336876 -0.029221214 0.0013948556 0.0065233726 -0.05419795 0.06995019 -0.059265
-0.03156117 -0.0025433607 -0.10637199 0.14568515 -0.004061818 0.020859417 0.0083611915 -0.0058895643
0.005796295 0.0037209273 0.19416296 -0.0007605511 -0.0032405544 -0.08019898 0.07315587 0.028991073
0.042969882 0.027317151 0.050722968 0.04753099 -0.057639875 0.008826388 -0.107567884 0.08265605
-0.0053148894 -0.04955001 -0.20589255 -0.073492415 0.057418346 0.00783588 -0.0648336 -0.060379054
0.08443926 0.0005240602 -0.016252244 6.562227e-05
00000000: 89e0 69bd a0c3 5b3d e599 6e3d c303 eebb
00000010: c589 993d e5c1 533d 4339 b23b 6562 4c3a
00000020: ce47 a5bc 890e ea39 9c26 303d 7d86 cf3b
00000030: a3af a43c 3b09 213b 2c28 aa3d 28f4 5db9
00000040: d98a 353d c002 953d d7ee 33bc 26ed db3a
00000050: b0fe 09bd 3eed 943d 8323 403c 870b a6bd
00000060: e63b 0d3d 3d97 a13b 6507 ab3c d255 a63d
00000070: e13f aebd ebc9 a0ba 15d2 98bb c26e b1b6
00000080: 9d27 2f3c 5358 91bd 19d5 23bd 60b4 e23d
00000090: fce4 62bd 570f 09bb 3ac7 b13c 34a2 21be
000000a0: ecdb 33be 0e79 2a3d 0b8b b43d 8518 023d
000000b0: 44a6 76bd e89a e83c 50ef 54bb 5623 a0b8
000000c0: e8c5 6b3d 6349 093c 58ae 2a3e 6a2d 7bbd
000000d0: f7aa 77bc 15ac 943b de66 dbbc c989 2e3d
000000e0: c4a9 aa3d 71a3 31bd 5461 efbc 96d3 b63a
000000f0: 04c2 d53b abfe 5dbd 0c42 8f3d dbbf 72bd
00000100: 4946 01bd 83ae 26bb 8fd9 d9bd 7d2e 153e
00000110: 0019 85bb 5ee1 aa3c 61fd 083c 3ffd c0bb
00000120: d9ee bd3b cdda 733b a8d2 463e b85f 47ba
00000130: 7b5f 54bb 5d3f a4bd bfd2 953d b07e ed3c
00000140: 3001 303d 38c8 df3c e3c2 4f3d dbaf 423d
00000150: ca17 6cbd 8e9c 103c 8d4c dcbd 9347 a93d
00000160: 8628 aebb f4f4 4abd 7fd5 52be 3183 96bd
00000170: 802f 6b3d 1062 003c 7ac7 84bd 0750 77bd
00000180: 7eee ac3d 1661 093a 6d23 85bc b09e 8938
