play_FlappyBird/results/flappybird/PPO_8/PPO_actor.pt (torch, 839200 bytes, 4 tensors)

l1.weight f4 [100, 2090]
00000000: 1393 01be f87a e5bd f41c 66bc 5a27 3dbc
00000010: efe3 ebbc db5a 183d fe12 ed3b 244a a9bd
00000020: e64d a8bd 3b43 13be b83e 40be f1a4 703c
00000030: cec4 30bd 34a1 113e bdcd 4ebe 8e9c 1fbc
00000040: 3233 f53c e712 15bc 29b9 e6ba b055 71bd
00000050: eed3 8cbc 4da0 80bd 5d6d fb3c b315 c6bd
00000060: b390 f63c ade0 a3bb 46a3 753c 1d13 2cbd
00000070: 65c8 b8bc 9151 97bd bd5a e13c 730a aebe
00000080: a1da d8bb 13e6 d4bd fbcb adbd 73f2 aabd
00000090: ace2 b5bd bffe 03bc 6085 febd 13f9 cdbd
000000a0: db0e 41bb ec5a 3bbc 27c1 75bd ad74 9d3c
000000b0: f638 383c 42fc 7bbd 06f1 b6bd 4fcf 30be
000000c0: 0d56 91bd 0316 75bd 0392 60bd f2f3 0e3e
000000d0: c01e 4dbe 520b f3bc 1615 5d3c 71c2 94bc
000000e0: 887b 983c 2870 65bd a653 273c 5b38 82bd
000000f0: 0a2c a13c 995b e1bd 9d41 e33c a6a3 4ebb
00000100: 1aef b83c c005 05bd aa70 573b 3718 9ebd
00000110: 3ca7 aa3c 56b7 aebe a430 ca3b bc16 bbbd
00000120: f3f0 a4bd 84d7 83bd ef64 ecbd 6c42 1ebd
00000130: 405f b5bd d4da fcbd 60e9 933b c94d 37bc
00000140: d4c3 61bd 055f 3d3d e6d7 013c 8435 acbd
00000150: ea5d 4bbd b07b 10bc a43e 063d 5bfb 0a3d
00000160: f7e7 26bd d08f eb3d a4dc 4dbe 27e7 22bd
00000170: 5f24 d03c bec6 14bd b700 77bb f88e 71bd
00000180: f6ed 88bc b245 70bd a39a 283d 282c fabd
00000190: 9287 173d 59ea e4bc 60f9 ac3b 875f 43bd
000001a0: 3fba e5bc 1b05 84bd 3c95 923c d688 a5be
000001b0: 891d a4bb 18c4 bfbd 3f5d a7bd eeed 92bd
000001c0: fd91 d6bd cd69 e0bb ecfb c0bd c317 ccbd
000001d0: dab9 8dbb a89d e73c 84eb 91bd 682d 783c
000001e0: 3cef 393c d67e 2bbd 8b06 6ebd b004 47be
000001f0: f01a 7bbe c552 1dbe 97b2 55bd 8ed4 073e
00000200: 75b8 5ebe fd20 21bc 373a e2ba 55a9 e5bc
00000210: 2e70 5abb 8459 44bd 16bf 90bc 63a5 69bd
00000220: 130b 493d 5b75 e8bd 6b83 853c 54bb 15bb
00000230: 6f4c a13c 7e97 a7bc e625 e7bc 5632 abbd
00000240: 5168 de3c b5f5 aabe 2f78 7cbc 1af3 c8bd
00000250: 3f49 2cbd d89a bebd ce04 02be e7e5 9cbc
00000260: 0a12 fabd bfaa 02be c379 9fbc c808 01bd
00000270: 51b4 09bd f00f a03c 72fa d43c 4cde 50bd
00000280: ad9c a6bd ec7d 53be 06a6 05be d682 d6bd
00000290: b34b 88bd 4c44 f73d 4115 35be 37e3 0ebd
000002a0: 6687 03bc b1f3 1cbd 596e e83c 8458 2dbd
000002b0: bbc3 86bc 3dda 61bd 2dc2 393c 9034 0ebe
000002c0: 4a67 8b3c dcd8 48bc ed6a 7dbb 9146 4ebd
000002d0: f04a 97bc dee1 c3bd bd95 413d 4d7f a8be
000002e0: 9cd8 f5bc 630d a4bd c817 acbd 907d a3bd
000002f0: f8ea b2bd bb75 08bd 016a cfbd 7488 07be
00000300: 15ed b0bc 049a 3e3a 2252 59bd f486 a03c
00000310: b24d f43b fa9d 93bd cc68 9bbd cfe0 c5bd
00000320: 0fa5 dcbc f597 14bd 34e2 48bd 4e7c fe3d
00000330: dda0 56be 5ea5 a8bb e686 15bc 8f6c 973a
00000340: 772c 7f3c c2f4 65bd 5a73 dabc 6bf9 94bd
00000350: e742 113d 2749 d4bd c403 bf3c bbd0 27bd
00000360: 07ab d03c 628f 25bd f15f c9ba b298 abbd
00000370: 9792 383d 59d9 adbe f7bf 20bd 3274 b4bd
00000380: a51c 8abd 35b2 8abd 73c9 00be ef2b 1fbc
00000390: 8116 06be 6aac 02be 893f 4fbc eef5 fabc
000003a0: e2f2 f8bc d01e aa3c 030a bd3c 9cac a6bd
000003b0: 201a 52bd ba72 f6bd eea2 8cbc 904b 313c
000003c0: 24fe 8fbd 87c4 0a3e 307c 53be 7c21 96bc
000003d0: 8efa 6d3c ec41 093c 2ff1 a43c 90be e3bb
000003e0: 7743 e1bc 2f41 a3bd 0561 4c3d 82fa 06be
000003f0: 3427 873c ab92 3bbc f303 563c 86fa cbbc
-0.1265376 -0.11205095 -0.014044989 -0.011545027 -0.02879521 0.03719602 0.00723493 -0.08266094
-0.08217983 -0.14381115 -0.18773925 0.014687763 -0.043156438 0.1422165 -0.2019567 -0.009741915
0.029931638 -0.009098745 -0.001760279 -0.05891961 -0.0171909 -0.06280575 0.030691797 -0.096721075
0.030098295 -0.0050011487 0.014992541 -0.042010415 -0.022556493 -0.073886044 0.027509088 -0.33992347
-0.0066178595 -0.10395446 -0.08486172 -0.08347025 -0.08881125 -0.008056342 -0.12427783 -0.10057273
-0.0029458317 -0.011435252 -0.059998658 0.019220674 0.011244049 -0.06151987 -0.0893269 -0.17266582
-0.07096491 -0.059835445 -0.054826748 0.13960245 -0.20031261 -0.029668484 0.013493797 -0.018159123
0.018613592 -0.056015164 0.010212814 -0.06358405 0.01967432 -0.11003799 0.027741248 -0.0031530648
0.02257495 -0.032476187 0.003287355 -0.07719462 0.020831697 -0.3412425 0.006170349 -0.091351956
-0.0805377 -0.06437591 -0.11542689 -0.038637564 -0.08856058 -0.12346426 0.0045139045 -0.011187979
-0.055118397 0.046233196 0.007925009 -0.08408645 -0.04965011 -0.008818552 0.032774583 0.033931118
-0.040748563 0.115020394 -0.20103699 -0.039771225 0.025407968 -0.036322348 -0.0037689635 -0.058974236
-0.016715031 -0.058660217 0.041163098 -0.122154534 0.036994524 -0.027943777 0.0052787513 -0.047698524
-0.02804291 -0.06446286 0.017893426 -0.3233096 -0.0050084037 -0.09363574 -0.08172082 -0.07174288
-0.10477064 -0.00684855 -0.0942305 -0.0996547 -0.0043251337 0.028273419 -0.07124999 0.015147544
0.011348542 -0.041869007 -0.05811171 -0.19435382 -0.24521995 -0.15363605 -0.05217227 0.13264677
-0.21750052 -0.009834525 -0.0017259781 -0.028034845 -0.0033331024 -0.04793693 -0.017669242 -0.05704249
0.049082827 -0.11350509 0.016298017 -0.0022847252 0.019689767 -0.02045798 -0.028216314 -0.0835921
0.027149351 -0.33390585 -0.015409513 -0.09811993 -0.04206204 -0.09306878 -0.12697145 -0.019152595
-0.12210472 -0.12760447 -0.01946724 -0.031502515 -0.03361923 0.01953885 0.025998328 -0.05099325
-0.08135352 -0.20653504 -0.13051614 -0.10474174 -0.066550635 0.120735735 -0.17683889 -0.034884658
-0.008027887 -0.03831834 0.02837293 -0.042320743 -0.016450753 -0.05513977 0.011337799 -0.13887239
0.017017026 -0.012258735 -0.003866847 -0.050360266 -0.01846835 -0.09564565 0.047261942 -0.32909623
-0.030010514 -0.08010366 -0.084029734 -0.079829335 -0.08736223 -0.0333154 -0.101276405 -0.13235646
-0.021597425 0.0007270875 -0.053056844 0.0195956 0.007455551 -0.07207866 -0.07588348 -0.096620195
-0.026934175 -0.03627773 -0.04904385 0.12426053 -0.20959802 -0.0051466664 -0.009126401 0.0011552739
0.015574566 -0.056141622 -0.026666332 -0.07274135 0.035464194 -0.10365515 0.023317225 -0.040970545
0.025472177 -0.040419944 -0.0015363676 -0.08378734 0.045061674 -0.33954886 -0.039245572 -0.08811225
-0.06743745 -0.067722715 -0.12576847 -0.009715064 -0.13094522 -0.12761083 -0.012649425 -0.030634847
-0.030389253 0.020766646 0.023076063 -0.081383914 -0.051294446 -0.12033601 -0.017167535 0.010821238
-0.07030895 0.13551532 -0.20652843 -0.018326513 0.014525069 0.008377533 0.020134537 -0.006950207
-0.02749799 -0.07971417 0.049897213 -0.13181499 0.016498186 -0.011448543 0.013062465 -0.024899732

l1.bias f4 [100]
00000000: 3e79 5f3f 418e 06be c458 63bd 2637 d5bd
00000010: fa8f 21be 9840 0fbe 52f6 e7bd baff cfbd
00000020: 2c6c 36be 1f7b 02bd a0f0 373f 2e6a ef3e
00000030: f8d6 513f 7729 d23e 9cb6 afbd 1f1b 29be
00000040: 617b 20be b6e3 a6bd dc55 35bd dd9f 2f3f
00000050: 4f03 29bd 9a6e f73e 6e46 053f 8de4 1cbe
00000060: a9f6 46bd 7e80 553f 626f 653f fd7f 533f
00000070: e28d cebd 7af0 0cbe 08a1 abbd 452a 2bbd
00000080: 64d5 8fbd 322e 683f de34 3abd 2e7c 16bd
00000090: 0bc8 cbbd ce25 ad3e 484a 2ebe 8700 2abe
000000a0: d716 663f d51c 853f a811 31be bc1b e2bd
000000b0: f502 c7bd 12ce 22be f10e abbc e4ca 13be
000000c0: 77c4 0dbe 3297 213f b415 f2bd b813 11be
000000d0: 12e8 8ebd 746f 54be 76b9 293f 5e2d 85bd
000000e0: ae09 1cbe 4435 00be 58f5 1dbd 485f 213f
000000f0: d369 153f f350 393f b61b 1b3f 0a48 f6bd
00000100: 2af0 553f e2e1 16be 3a1f abbd 2841 96bd
00000110: 65de 28bd 3e9f 2a3f e756 f6bc c1c7 30be
00000120: f05e 27be 4e14 08be c294 f7bd 3f02 98bd
00000130: aeeb 42bd 1cdd e23e 18b4 13be 7dd9 973e
00000140: 0024 3abe 3548 7cbe b6c4 93bd 0609 dfbd
00000150: 079a 21be ab04 103f 0a5a 08be 182f 2bbe
00000160: 4a12 95bd 9432 193f 29e6 10be 80e5 f5bd
00000170: 474b 27be 2caf 443f 0afd 523f 3e39 22be
00000180: a341 57bd bed4 203f 8e85 2ebd a96f 37bd
0.87294376 -0.13140203 -0.055504575 -0.10410909 -0.15777579 -0.13989484 -0.11326279 -0.10156198
-0.17814702 -0.0318557 0.7185154 0.46760696 0.8196864 0.4104726 -0.08579752 -0.16514252
-0.15672065 -0.08148901 -0.044271335 0.68603307 -0.04126292 0.4832657 0.5206059 -0.1532156
-0.048575077 0.8339919 0.8962308 0.8261717 -0.10085656 -0.1376361 -0.08380324 -0.04178836
-0.07023123 0.9069549 -0.045460574 -0.03673952 -0.099502645 0.33817905 -0.17020524 -0.16601764
0.898786 1.0399424 -0.17291892 -0.11040446 -0.09717361 -0.15898922 -0.020881148 -0.14432865
-0.13844477 0.6312133 -0.11820546 -0.14167678 -0.06977858 -0.20745641 0.66298616 -0.06502794
-0.15238068 -0.12520319 -0.038564056 0.6303601 0.583646 0.72389144 0.6058916 -0.12025459
0.83569586 -0.14734605 -0.08355565 -0.07336646 -0.041227717 0.66649234 -0.030070735 -0.172637
-0.1634481 -0.13288996 -0.1208892 -0.074223034 -0.047588043 0.44309318 -0.14424169 0.29658118
-0.18177795 -0.2463692 -0.07215254 -0.10890393 -0.15781413 0.5625712 -0.13315597 -0.16717184
-0.07278879 0.598428 -0.14150299 -0.12006664 -0.1633731 0.7682979 0.82417357 -0.15842149
-0.05255283 0.6282462 -0.042607836 -0.04478422

l2.weight f4 [2, 100]
00000000: a33f 96be 1468 fbbc 20f7 293e 03d9 7f3e
00000010: 7c31 7dbb a754 a3bc 24ce c63d b1a3 933e
00000020: ef4c b33d cd08 8e3d 6b27 d0be c382 f8bd
00000030: 11c5 75be 9efb fabd 5679 a7bc efbf 5b3d
00000040: 8acf 01ba b91c e03c 7264 80bb b5b2 56be
00000050: b335 ee3d b975 0ebd 64d6 7abe 3c01 003c
00000060: 837e 0b3e c931 8fbe 0745 d5bd 84c0 54be
00000070: d95b 2e3e 03c8 063d f902 303e 6c01 50be
00000080: 1858 0e3e 785d acbd 6b9a eabb 5a70 9f3d
00000090: 4b78 6e3e 424a 9d3c 19d7 8dbc abd1 713d
000000a0: c02a 44be dedb d3be fc26 a13e 48c6 c43d
000000b0: b3df 253d 55b0 e3bc 26da b53d a504 133d
000000c0: 2148 4a3d 6b98 1fbe 20e9 663c 2ad4 7abc
000000d0: f64b 903d 6433 35bd dcda 46be acd1 f33d
000000e0: 8b75 7a3d e8f9 63be 544a 7f3d 6540 48be
000000f0: 4534 edbd b2c5 efbd 46b0 bcbe 121c db3c
00000100: 0740 12be 024c da3c 9ae6 d93d 303f 523e
00000110: e1af 15bd 8a08 98bd bf26 bcbc 0ce8 f63b
00000120: 2738 d73e bea2 a13d d5af dd3c dfda b2bd
00000130: 2827 123e b529 77bd 0c97 d03d dad7 74bd
00000140: 6d63 27bb 6de1 37bc ac2a 093d 0d1d 093e
00000150: faf1 823c 2fa4 0fbe 42c9 5e3d c07f 9d3d
00000160: f34f 443e 68b5 21be 7534 203d de8c 343d
00000170: d3fa d63d 99aa 2abe c3b4 74be 997e 61bc
00000180: 19fb 61bd c0fe 94bb 3f2d 62bd 803f 203e
00000190: ce2f b83e 5524 05bd c5e5 83bd ca00 3dbe
000001a0: a76e ccbb d92d 39bc 61a5 a4bb 3d0e 27be
000001b0: e000 08be c333 b9bc aab8 d93e b66f 053e
000001c0: 5c95 0c3e 99a7 133e 427c 9abd c11e 7abd
000001d0: 456f 79bd 91f0 dfbc 992f 43bb e93d 013e
000001e0: 7c6f e6bc 2acc 133e d6a6 593e 3732 883c
000001f0: 2ca8 a2bd d9fd 853e d78a 943e 4825 3d3e
00000200: 91a4 76ba 9adf 8cbd 3b6c 28be 5b46 573e
00000210: 9cc0 65be 80c8 243e 666d 01bb 5452 09bc
00000220: 3b64 c6bd 6f06 023d 8c71 07bd 577b 06bc
00000230: b6b1 833e c24a e73e a04d 97be 1c95 2c3d
00000240: a6f9 d5bd c5f0 573e e2f4 75bc dce7 cf3c
00000250: c69e 8dbd e35a 603e 1a8e f2bd d690 58bd
00000260: 4174 67bd 8b98 20bd 9aed 413e 9b5c f4bd
00000270: a734 55be e1d5 003e a9b8 49bd 8976 143e
00000280: 0ee4 0d3e 095c fd3d 1eeb 8a3e b3a1 a53c
00000290: ac2d 943e c551 253d bd7d f93c c463 f7bd
000002a0: 8b44 3ebd cbc4 11bd 9a6b be3d 16ed e43a
000002b0: 6db7 dcbe 6987 1bbd 6f4a cdbd 81e2 bebc
000002c0: a64d 38bd 75e8 223e 527e 38bd a673 aabd
000002d0: 6eac b1bc b216 fcbb 081b 53bd 0d4d f6bd
000002e0: 0e81 8dbc 62d3 b13d e189 5dbc 92f5 30be
000002f0: 05d9 3fbe ca8c 873e 10e3 de3c 7546 8a3c
00000300: 212b 94bd 5ead 3f3e cde2 423e 8a65 b7bd
00000310: 7acf 8e3d 07d9 9d3d 1bd3 2ebd 2782 a1bd
-0.29345426 -0.030689277 0.16598177 0.24985127 -0.0038634231 -0.019937826 0.09707287 0.28835824
0.08754908 0.06935272 -0.40655074 -0.12134316 -0.24000956 -0.122550234 -0.0204436 0.05364984
-0.0004951885 0.027357446 -0.003918224 -0.20966609 0.11631336 -0.034780238 -0.24495846 0.007812794
0.13622479 -0.2796767 -0.104135565 -0.20776564 0.17027225 0.03290559 0.17188634 -0.20313042
0.13900793 -0.08416265 -0.0071595213 0.07785101 0.23288076 0.019200448 -0.01731448 0.059037846
-0.19156933 -0.41378683 0.31475055 0.09608132 0.04049654 -0.027794043 0.08879499 0.0358931
0.049385194 -0.15585487 0.014093667 -0.015309373 0.070457384 -0.044238463 -0.19419426 0.11905226
0.061147254 -0.222633 0.062326744 -0.19555815 -0.11582235 -0.11707629 -0.36853236 0.026746783
-0.14282237 0.026647571 0.10639687 0.20531917 -0.036544684 -0.07423504 -0.022967694 0.0075349864
0.42035028 0.07892369 0.027061382 -0.087331526 0.1427275 -0.06034251 0.1018506 -0.059776165
-0.002554144 -0.011223179 0.03348796 0.13389988 0.015984524 -0.14027475 0.054391153 0.07690382
0.19171123 -0.15791857 0.039112527 0.044079654 0.1049706 -0.1666664 -0.2389708 -0.013763093
-0.055171106 -0.00454697 -0.05521893 0.15649223 0.35973972 -0.032505352 -0.064403094 -0.18457332
-0.0062387767 -0.011302435 -0.0050245975 -0.16314025 -0.13281584 -0.02260769 0.425237 0.13030896
0.13728851 0.14419402 -0.075432315 -0.061064485 -0.06089713 -0.02733639 -0.002978301 0.12621273
-0.028129332 0.14433351 0.21255049 0.016625507 -0.079422325 0.26170233 0.29012176 0.18471253
-0.00094086776 -0.06878586 -0.16447537 0.21022932 -0.22436756 0.1609211 -0.0019749044 -0.008381445
-0.09687086 0.031744417 -0.03306727 -0.008208117 0.2572152 0.45174223 -0.2955141 0.04213439
-0.10448007 0.2108794 -0.015011998 0.025379114 -0.06915049 0.2190967 -0.1184351 -0.0528725
-0.056507353 -0.039207976 0.18938294 -0.119317256 -0.20820867 0.12581588 -0.04924837 0.14498343
0.13856527 0.1237107 0.27132505 0.020218706 0.28941095 0.040361185 0.030455464 -0.12079576
-0.046452086 -0.035588067 0.09297867 0.0017465677 -0.43108693 -0.037970934 -0.10023963 -0.023301365
-0.044995926 0.15908988 -0.045042343 -0.083228394 -0.021688666 -0.007693135 -0.05153945 -0.12026415
-0.017273452 0.08682896 -0.013521642 -0.17281178 -0.1873513 0.264746 0.027207881 0.0168793
-0.07234789 0.18718478 0.1903183 -0.08954914 0.06973167 0.0770741 -0.042681795 -0.07886153

l2.bias f4 [2]
00000000: e8d0 cbbe 3bbd 023f
-0.3980782 0.5106999
