first_game_pong/results/Pong-v0/REINFORCE_15/REINFORCE.pt (torch, 100316 bytes, 6 tensors)

cnn.0.weight f4 [16, 1, 3, 3]
-0.002763834 0.18517019 -0.26870018 -0.25194716 -0.13098536 0.091370694 -0.009384993 0.27042538
-0.034458477 0.08401891 -0.106078476 -0.07114899 -0.32576337 -0.22450429 -0.13785614 0.012718053
0.13444333 0.21222025 -0.2312645 -0.15223268 0.120136864 0.28539938 -0.07408888 0.27030912
-0.04314712 0.036069106 0.3182401 -0.3024217 -0.19296435 -0.08145239 -0.12727697 0.30763936
-0.21243457 -0.14459874 -0.21636942 -0.29557535 -0.20024405 0.28621837 0.14315 0.15522073
0.013817313 -0.18094972 0.06592365 -0.32556573 -0.24289382 -0.17504536 0.20488888 0.19776429
-0.15834484 -0.026561331 0.21659301 0.3359567 0.12322558 0.040155903 0.21903434 -0.18493316
0.062085096 -0.25611234 -0.23809232 -0.17943664 0.15892369 0.13733889 -0.19153191 0.10227091
0.18292546 -0.039674196 0.017511966 0.07465919 0.20346157 0.3267089 -0.26156557 -0.12474562
0.1184638 0.26812845 0.2954493 0.28818816 0.05562549 -0.29273918 0.032406405 -0.21714258
-0.31370297 0.3034517 0.24030273 -0.33075857 0.07134163 -0.07096539 -0.045732502 -0.15977791
0.12765372 -0.19089559 0.11377741 0.16376656 0.2447658 0.12841527 -0.32260975 -0.21578473
0.17376235 0.07336749 -0.25833535 -0.19449088 0.32584223 0.22393018 -0.13967943 -0.077178225
-0.31433225 0.014452629 -0.25289947 -0.25056478 -0.022293776 0.04699274 -0.14103083 0.19702333
-0.2061851 0.303063 0.2307578 -0.28364205 -0.072646834 0.018596575 0.057340365 0.08277474
0.1351257 0.022637466 -0.15650406 0.15188225 -0.3243814 -0.19539866 -0.08333425 -0.16040616
-0.12388802 -0.2694977 -0.06441381 0.07978753 -0.20783883 -0.0075142863 0.25042892 -0.037321012
0.0039561708 -0.026672898 0.061477557 0.22146861 0.3115263 0.19661209 0.3341259 -0.024283813
00000000: 7121 35bb 419d 3d3e 1293 89be 38ff 80be
00000010: 0721 06be 8f20 bb3d 84c3 19bc 3275 8a3e
00000020: 5524 0dbd 1b12 ac3d ac3f d9bd 90b6 91bd
00000030: 75ca a6be 74e4 65be 292a 0dbe 615f 503c
00000040: 83ab 093e 4450 593e 9ad0 6cbe e2e2 1bbe
00000050: 510a f63d de1f 923e e9bb 97bd f565 8a3e
00000060: 09bb 30bd 33bd 133d 5ef0 a23e 04d7 9abe
00000070: 7298 45be 83d0 a6bd e554 02be e882 9d3e
00000080: 7388 59be b111 14be f28f 5dbe a755 97be
00000090: c70c 4dbe 378b 923e ea95 123e 2ff2 1e3e
000000a0: 0362 623c e24a 39be fb02 873d 8db0 a6be
000000b0: 28b9 78be 173f 33be 64ce 513e b982 4a3e
000000c0: 2625 22be 2697 d9bc 8fca 5d3e 8402 ac3e
000000d0: b15d fc3d 847a 243d 8a4a 603e 1e5f 3dbe
000000e0: f14c 7e3d 2821 83be 79ce 73be 3dbe 37be
000000f0: e4bc 223e 91a2 0c3e f120 44be 6973 d13d
00000100: d050 3b3e 6981 22bd 4175 8f3c ebe6 983d
00000110: 3b58 503e 6446 a73e eceb 85be a27a ffbd
00000120: 269d f23d 2248 893e 2145 973e 668d 933e
00000130: 8ed7 633d e9e1 95be 94bc 043d a05a 5ebe
00000140: ad9d a0be 055e 9b3e eb11 763e 3059 a9be
00000150: 8f1b 923d 4d56 91bd 0152 3bbd d29c 23be
00000160: a8b7 023e 227a 43be 2104 e93d 6cb2 273e
00000170: e3a3 7a3e 4b7f 033e 1b2d a5be acf6 5cbe
00000180: c2ee 313e b241 963d 8844 84be 9e28 47be
00000190: cbd4 a63e f44d 653e 2008 0fbe 9e0f 9ebd
000001a0: 28f0 a0be b8ca 6c3c 0a7c 81be 074a 80be
000001b0: 70a1 b6bc 767b 403d 636a 10be 7cc0 493e
000001c0: 3022 53be 132b 9b3e c64b 6c3e 8839 91be
000001d0: ddc7 94bd d857 983c bbdd 6a3d ce85 a93d
000001e0: 645e 0a3e 3572 b93c 9a42 20be 0587 1b3e
000001f0: 5215 a6be 9616 48be 26ab aabd 8341 24be
00000200: 01b9 fdbd 9afb 89be 63eb 83bd a567 a33d
00000210: b4d3 54be 673a f6bb 3838 803e ebdd 18bd
00000220: c4a2 813b 1f81 dabc e4cf 7b3d abc8 623e
00000230: 6080 9f3e ae54 493e 8d12 ab3e d9ee c6bc

cnn.0.bias f4 [16]
-0.2900286 -0.13752672 0.2480516 -0.001970604 -0.15249515 -0.24162924 -0.31077325 -0.2677758
-0.0701111 0.20007537 0.19744495 -0.30071858 0.22671784 -0.25698486 -0.038645476 -0.104266785
00000000: a17e 94be ced3 0cbe 3d01 7e3e 4025 01bb
00000010: b027 1cbe a86d 77be ac1d 9fbe e919 89be
00000020: 6996 8fbd 8fe0 4c3e 022f 4a3e c9f7 99be
00000030: b928 683e 8593 83be b84a 1ebd d389 d5bd

cnn.3.weight f4 [32, 16, 3, 3]
-0.020029698 -0.0030732013 -0.06610984 -0.075153545 -0.009465949 0.009086315 -0.039150715 0.035236217
-0.07990873 -0.001965804 0.08735914 -0.032068156 0.0673428 0.03366203 -0.06651639 0.05488132
-0.010991819 -0.039346017 0.062654205 -0.058400363 0.020849524 -0.020575544 0.07144683 0.029304503
0.043864973 0.03200821 -0.016929688 -0.016587628 -0.054897703 0.062110532 0.06840168 0.07821681
-0.04994387 0.009225308 -0.056056734 -0.04351845 -0.058144256 0.024406929 -0.040462226 -0.007936289
0.0128684165 0.065030746 -0.06662755 -0.045787685 -0.04570545 0.05223035 -0.031507526 0.08278285
0.02631698 0.020009672 0.0045078783 -0.015748356 0.0124641275 -0.018952178 -0.0079896925 0.011682889
-0.05668344 -0.049609147 0.0670842 -0.05580204 -0.0045751925 0.08554531 0.029858874 -0.0070177675
-0.07798875 0.05109872 -0.068274036 -0.020551486 -0.017136242 -0.008539394 0.008188387 0.07005527
-0.001652688 0.066900246 0.05520488 -0.058384057 0.04088485 -0.048752774 -0.039359648 0.03194139
0.029516844 0.053872276 -0.028940119 0.0028455816 0.037138928 -0.07889057 0.071501754 -0.066138275
0.009126926 -0.008256325 -0.053568333 0.0060082325 0.07841923 -0.02965082 -0.045759108 -0.020188535
-0.08119173 0.04385994 -0.0400762 -0.062184654 -0.05086312 0.05470302 0.03865577 0.075409636
0.03906137 -0.026201636 -0.012747525 0.026241858 0.0629298 0.025619661 -0.027596766 -0.044092122
-0.071894795 0.03151035 -0.041537907 -0.06919093 0.07268428 -0.06434809 -0.012965514 0.033348512
-0.0021949792 -0.05384241 -0.054950625 0.062455274 0.018999584 0.06866277 -0.025456745 0.04059975
-0.02292836 -0.0067808223 -0.039607946 0.030901633 0.03066875 -0.0020788196 -0.020956224 -0.057768337
0.057541672 -0.05601502 0.029834853 -0.024212983 -0.035669405 0.015522168 -0.044518523 0.017853864
0.022230726 -0.063713826 0.015221875 0.035042956 0.03226789 -0.010715726 -0.066873826 -0.021442683
0.030164069 -0.030255644 0.037143875 0.058869705 -0.043957725 -0.0012769201 0.030818775 0.003582774
-0.0016888656 0.012944316 -0.07055264 0.01046156 0.056306783 0.0711441 0.052477885 0.012432899
0.037579007 -0.039796416 -0.0676219 -0.06499896 0.08872672 0.0560267 -0.058175053 0.033942267
0.06589894 0.08275508 0.06676908 0.06999359 -0.018603891 -0.030748388 0.05897415 0.046049427
-0.05426645 0.07412548 0.039827943 0.043358695 -0.044346403 0.019166589 -0.033918824 0.0602278
-0.01991386 0.030637221 0.014172284 0.031948037 -0.034015298 0.03988293 -0.049467653 0.01805828
-0.051843334 -0.077154234 -0.07039912 0.068959534 0.04565761 0.06909814 0.06616465 -0.073083125
-0.06403791 -0.019764602 -0.05755895 0.05320245 -0.062341753 -0.03949157 -0.08651721 -0.047762524
0.0657323 0.06480416 0.051307943 0.057775714 0.067871556 -0.020059854 0.035297707 0.07013123
0.03041049 0.08915776 0.039375458 0.05069538 -0.024931233 0.03624164 0.015196747 -0.011020737
-0.051353406 -0.046013877 -0.06306545 0.054855168 0.054443367 -0.006463593 -0.051878385 0.06638969
0.05219849 0.00059881393 -0.034482766 0.079425834 0.034049273 -0.07435483 0.0775485 0.06452219
-0.031228712 0.04425615 -0.0499535 -0.007266162 0.0711511 0.0031570317 -0.057945 -0.029071283
00000000: 5215 a4bc c367 49bb 9964 87bd 1aea 99bd
00000010: 1117 1bbc c4de 143c 805c 20bd da53 103d
00000020: 30a7 a3bd b8d4 00bb 59e9 b23d e659 03bd
00000030: 06eb 893d 32e1 093d bf39 88bd 3ccb 603d
00000040: 0817 34bc 4a29 21bd d950 803d 3835 6fbd
00000050: 9fcc aa3c 0b8e a8bc b752 923d ff0f f03c
00000060: c2ab 333d 0a1b 033d 21b0 8abc c7e2 87bc
00000070: 6adc 60bd 9d67 7e3d 2e16 8c3d 2330 a03d
00000080: f291 4cbd bf25 173c bf9b 65bd 6740 32bd
00000090: ac28 6ebd 0af1 c73c b8bb 25bd 3507 02bc
000000a0: 0dd6 523c d72e 853d 0674 88bd de8b 3bbd
000000b0: a335 3bbd 7eef 553d 090e 01bd 0e8a a93d
000000c0: b596 d73c 53eb a33c d3b6 933b b202 81bc
000000d0: 5736 4c3c 9941 9bbc 33e7 02bc 9769 3f3c
000000e0: e52c 68bd f632 4bbd 7163 893d ae90 64bd
000000f0: 7feb 95bb 6132 af3d 999a f43c 4df5 e5bb
00000100: 91b8 9fbd e44c 513d 42d3 8bbd 975b a8bc
00000110: 4e61 8cbc d0e8 0bbc 9628 063c 2379 8f3d
00000120: 029f d8ba ff02 893d 831e 623d 1f24 6fbd
00000130: df76 273d fdb0 47bd 9537 21bd fad4 023d
00000140: 4fcd f13c 2da9 5c3d d413 edbc f07c 3a3b
00000150: fd1e 183d 6191 a1bd 836f 923d 8173 87bd
00000160: 1a89 153c 8945 07bc 786a 5bbd b5e0 c43b
00000170: 439a a03d 47e6 f2bc e76d 3bbd 6d62 a5bc
00000180: da47 a6bd 7ba6 333d f126 24bd 56b5 7ebd
00000190: d955 50bd 4610 603d 8355 1e3d 5e70 9a3d
000001a0: d1fe 1f3d d0a4 d6bc ffda 50bc 2af9 d63c
000001b0: 57e1 803d 53e0 d13c 9d12 e2bc f199 34bd
000001c0: 943d 93bd ff10 013d a723 2abd f9b3 8dbd
000001d0: 7fdb 943d eec8 83bd 4f6d 54bc 7398 083d
000001e0: a4d9 0fbb dc89 5cbd e813 61bd 1ad1 7f3d
000001f0: 04a5 9b3c 119f 8c3d aa8a d0bc ec4b 263d
00000200: 42d4 bbbc a931 debb f13b 22bd 6c25 fd3c
00000210: 083d fb3c ce3c 08bb 63ac abbc 7e9e 6cbd
00000220: d1b0 6b3d 0170 65bd 3968 f43c 4e5a c6bc
00000230: 151a 12bd b150 7e3c 0e59 36bd 4442 923c
00000240: 361d b63c 657c 82bd 2c65 793c 3489 0f3d
00000250: 562b 043d 0391 2fbc 25f5 88bd 91a8 afbc
00000260: a31a f73c afda f7bc 2d24 183d 5c21 713d
00000270: 040d 34bd 545e a7ba a877 fc3c f9cc 6a3b
00000280: ed5c ddba 6514 543c e77d 90bd f766 2b3c
00000290: f1a1 663d ffb3 913d 0df3 563d 5cb3 4b3c
000002a0: 72ec 193d 9101 23bd 5a7d 8abd 2d1e 85bd
000002b0: 5bb6 b53d 417c 653d f748 6ebd 0c07 0b3d
000002c0: 06f6 863d 7f7b a93d 3abe 883d cd58 8f3d
000002d0: 3067 98bc 0be4 fbbc e18e 713d 539e 3c3d
000002e0: 7f46 5ebd 1acf 973d a022 233d e398 313d
000002f0: 93a4 35bd 4003 9d3c 77ee 0abd 6db1 763d
00000300: 6422 a3bc e9fa fa3c de32 683c f2db 023d
00000310: a053 0bbd 495c 233d 989e 4abd f5ee 933c
00000320: ad59 54bd 0a03 9ebd 6a2d 90bd a83a 8d3d
00000330: 7903 3b3d 5383 8d3d 5581 873d 9bac 95bd
00000340: 4f26 83bd 60e9 a1bc efc2 6bbd d0ea 593d
00000350: 115a 7fbd eac1 21bd ef2f b1bd a3a2 43bd
00000360: a89e 863d 0bb8 843d 4728 523d 3aa6 6c3d
00000370: 3e00 8b3d 9054 a4bc 5494 103d f6a0 8f3d
00000380: 6c1f f93c 5898 b63d 2948 213d f5a5 4f3d
00000390: 963c ccbc 1d72 143d c7fb 783c 5290 34bc
000003a0: f357 52bd 0c79 3cbd 7528 81bd d0af 603d
000003b0: 0200 5f3d 8ccc d3bb 6e7e 54bd 51f7 873d
000003c0: 15ce 553d b9f9 1c3a cd3d 0dbd 03aa a23d
000003d0: 4077 0b3d 5847 98bd bfd1 9e3d 3624 843d
000003e0: 5bd3 ffbc f045 353d 0b9c 4cbd fc18 eebb
000003f0: abb7 913d 34e6 4e3b bc57 6dbd e626 eebc

cnn.3.bias f4 [32]
-0.02417154 0.04431766 0.03205921 -0.08710909 0.0461078 0.060499914 0.015336329 0.030962136
0.021067029 0.078187615 0.089152955 0.024942495 0.05094619 -0.0037670706 0.06532494 -0.020311087
-0.0648274 0.020540599 0.040119033 0.031185677 0.056416567 0.009631072 0.048759367 0.034063756
-0.036637835 0.0131210815 0.028860552 -0.0067824963 -0.06724723 0.025063088 0.070832 -0.03589396
00000000: 6503 c6bc 6f86 353d 8550 033d 4066 b2bd
00000010: 88db 3c3d c2ce 773d 3a45 7b3c 4ea4 fd3c
00000020: c394 ac3c d420 a03d d395 b63d 3454 cc3c
00000030: f4ac 503d f5e0 76bb 15c9 853d 7063 a6bc
00000040: 3ac4 84bd c244 a83c db53 243d 1b79 ff3c
00000050: 0f15 673d a5cb 1d3c e7b7 473d 7086 0b3d
00000060: 8e11 16bd cef9 563c f76c ec3c b43f debb
00000070: eab8 89bd 1b51 cd3c 5e10 913d 8c05 13bd

fc.weight f4 [2, 9792]
0.01746288 0.012330884 0.016398286 0.0025188145 -0.00069975667 0.00604078 0.0091998875 0.0006074806
0.008871926 -0.002178885 -0.0049118153 -0.0028006663 0.0137549825 0.00029904343 0.0023733033 0.0072443453
-0.0029476017 0.003583931 0.009299236 -0.0003327901 -0.004901142 0.013831212 0.015901746 0.007246483
0.002649587 -0.00040745124 0.008067857 0.014439497 -0.009302946 -0.0014531232 0.0061766766 0.009666813
0.0032744072 -4.4458808e-05 -0.0024922325 0.007963759 -0.0024206515 -0.009298415 -0.00012908602 0.0027041754
-0.0156873 -0.007185988 0.009664359 0.011605377 -0.0006284546 0.012859884 0.016610242 0.003655632
0.00665267 0.0012388672 -0.0064408914 0.023349842 0.00012979118 0.008806869 0.0021362344 0.002362663
-0.005958906 -0.0061929566 -0.013464129 -0.00036079102 -0.009779881 0.009454168 0.018125528 0.0024616565
-0.0049391477 -0.00025798072 0.00094239425 -0.0038020702 -0.002354568 0.0028497945 0.008939981 0.0044871294
0.015506266 0.003031367 -0.00056479784 -0.0067841276 -0.004206892 -0.006109328 -0.017829895 0.008496391
0.011288298 -0.0060099573 -0.003346456 -0.0024084018 0.013439753 -0.0058463444 -0.0051141675 -0.00168256
-0.00092299836 0.011741009 -0.01089546 -0.0134957265 -0.014513039 0.0035326413 0.0023959975 0.0062785703
-0.004459092 -0.005264509 0.0043663704 -0.007990247 0.010625269 0.0020834191 0.0076261032 -0.000632366
-0.020076053 -0.009610321 -0.004801321 0.005001543 0.0025557277 0.001042547 -0.010888378 -0.004804819
0.0014442191 -0.019326454 -0.013196485 -0.008626147 -0.0024877393 -0.021761237 0.011355216 0.026471518
0.008472167 -0.01207557 2.4539115e-05 -0.003415048 0.0055290516 0.0022187617 -3.4297227e-06 -0.00728948
0.0006503017 0.020072058 0.0072976747 -0.019091321 -0.010350737 -0.001729764 -0.00829619 0.0020210808
0.014416132 0.017447002 0.013810765 0.001268309 -0.0076291347 -0.013346064 0.006924062 0.0104850335
-0.0026553778 0.008756345 0.017872386 -0.009421851 -0.01094751 -0.009219811 -0.010078629 -0.00959796
-0.002530668 0.015778909 0.0019615202 -0.010248927 -0.009781912 -0.012363921 0.0056057875 -0.013822038
0.00058642967 0.0066485154 -0.00043731852 -0.008907787 0.0084647965 -0.006729419 -0.0052284105 -0.008435296
2.369742e-05 -0.0036330074 -0.002820235 -0.0011577631 0.014013069 -0.015516549 0.0005101505 -0.012550692
-0.015497075 -0.0057287733 -0.012815494 0.0042696 0.0028514753 0.0066177 -0.00586227 0.0053944625
0.014314633 -0.008828001 0.010617724 -0.0037135417 -0.0062174853 -0.012794581 -0.0013947033 -0.0054663266
0.0022732927 -0.0031090511 -0.010906635 -0.031599455 -0.0053431373 0.0012392497 -0.008270844 -0.013783566
0.007831398 -0.0026254281 0.0012063803 -0.0022443577 0.0010541606 0.0077046184 -0.011734435 -0.014936957
-0.0069787083 -0.0014196046 -0.0040517957 0.0012473693 -0.0075433496 -0.0129222395 0.012850586 -0.0134165315
-0.016416647 -0.0020064 0.00027437514 -0.0041214623 0.010294609 -0.0014153204 0.0048427577 -0.003909051
0.0028150207 -0.0024063578 -0.0046124933 -0.004483197 0.0056889416 -0.0049286424 -0.01519068 -0.0224944
-0.0028276723 0.0078054834 -0.004419635 -0.009869006 0.00090574764 -0.0047034966 -0.0054367003 0.008800976
-0.0012102451 0.002101817 0.015070922 0.00478506 0.007884298 -0.01712053 -0.0061795376 -0.014817612
0.00092023786 -0.009923322 -0.0054125353 0.012699686 -0.005013655 -0.01872029 0.0017056082 0.0037047144
00000000: 500e 8f3c 7a07 4a3c b355 863c b212 253b
00000010: e06f 37ba bcf1 c53b 20bb 163c 553f 1f3a
00000020: 8e5b 113c a0cb 0ebb 4bf3 a0bb 628b 37bb
00000030: 945c 613c eec8 9c39 6c89 1b3b f961 ed3b
00000040: 8d2c 41bb 62e0 6a3b d35b 183c 557a aeb9
00000050: c299 a0bb 4f9c 623c 6144 823c e873 ed3b
00000060: b2a4 2d3b 2e9f d5b9 0b2f 043c a493 6c3c
00000070: 626b 18bc b976 beba b865 ca3b 8d61 1e3c
00000080: 7097 563b 4879 3ab8 b954 23bb 6d7a 023c
00000090: cba3 1ebb 6158 18bc 445b 07b9 8938 313b
000000a0: a782 80bc 7078 ebbb 4257 1e3c 7b24 3e3c
000000b0: e0be 24ba 43b2 523c 3412 883c 5493 6f3b
000000c0: a4fe d93b 7c61 a23a 1d0e d3bb 2b48 bf3c
000000d0: 8e18 0839 b04a 103c 1100 0c3b e8d6 1a3b
000000e0: ed42 c3bb 49ee cabb a698 5cbc 8d28 bdb9
000000f0: cb3b 20bc a8e5 1a3c fd7b 943c be53 213b
00000100: 93d8 a1bb 9641 87b9 020b 773a 272c 79bb
00000110: 194f 1abb 9ec3 3a3b 0079 123c c508 933b
00000120: fe0d 7e3c e6a9 463b f10e 14ba 634d debb
00000130: f8d9 89bb c230 c8bb 0010 92bc 7234 0b3c
00000140: 8ef2 383c 2def c4bb 3750 5bbb 47d6 1dbb
00000150: 6932 5c3c b192 bfbb bf94 a7bb 5889 dcba
00000160: 5ff5 71ba 5c5d 403c df82 32bc 2e1d 5dbc
00000170: 19c8 6dbc e383 673b 2b06 1d3b 77bc cd3b
00000180: 931d 92bb e781 acbb c513 8f3b 86e9 02bc
00000190: 9c15 2e3c f989 083b 64e4 f93b 5dc5 25ba
000001a0: 8976 a4bc 9c74 1dbc 6654 9dbb fce3 a33b
000001b0: ff7d 273b 13a6 883a 2b65 32bc be71 9dbb
000001c0: f44b bd3a 8352 9ebc 1236 58bc af54 0dbc
000001d0: 5709 23bb 9f44 b2bc 3a0b 3a3c ccda d83c
000001e0: d8ce 0a3c 9dd8 45bc 59d9 cd37 ffce 5fbb
000001f0: 0c2d b53b a568 113b 302a 66b6 97dc eebb
00000200: 0279 2a3a 286e a43c 5521 ef3b 6765 9cbc
00000210: 2396 29bc 40b9 e2ba beec 07bc 1c74 043b
00000220: a431 6c3c 04ed 8e3c 8c46 623c 633d a63a
00000230: d2fd f9bb 73a9 5abc 3ee3 e23b 6bc9 2b3c
00000240: d905 2ebb c676 0f3c 1c69 923c 1b5e 1abc
00000250: 2f5d 33bc b10e 17bc d520 25bc c340 1dbc
00000260: 90d9 25bb c542 813c d98c 003b 1eeb 27bc
00000270: 5044 20bc 0b92 4abc c1b0 b73b d475 62bc
00000280: a1ba 193a cadb d93b e647 e5b9 f7f1 11bc
00000290: eeaf 0a3c 7582 dcbb 1653 abbb 3234 0abc
000002a0: d2c9 c637 c017 6ebb b1d3 38bb 15c0 97ba
000002b0: 1297 653c 2039 7ebc 9fbb 053a 6ba1 4dbc
000002c0: 72e7 7dbc 6fb8 bbbb 14f8 51bc 00e8 8b3b
000002d0: d1df 3a3b 4bd9 d83b 4918 c0bb 08c4 b03b
000002e0: ec87 6a3c 52a3 10bc f6f5 2d3c e45e 73bb
000002f0: 0cbc cbbb 5da0 51bc 7ace b6ba df1e b3bb
00000300: 86fb 143b 39c1 4bbb beb1 32bc 6e6e 01bd
00000310: 7c15 afbb 526e a23a 6f82 07bc 77d4 61bc
00000320: 444f 003c 600f 2cbb 681f 9e3a 1316 13bb
00000330: c32b 8a3a 0677 fc3b ca41 40bc 23ba 74bc
00000340: a6ad e4bb 0712 baba edc4 84bb c57e a33a
00000350: 342e f7bb cdb7 53bc 448b 523c 03d1 5bbc
00000360: 347c 86bc ce7d 03bb 02da 8f39 550d 87bb
00000370: b8aa 283c 4682 b9ba ffaf 9e3b 7f17 80bb
00000380: 367c 383b fcb3 1dbb 6624 97bb c8e7 92bb
00000390: 4d6a ba3b 7380 a1bb 54e2 78bc 2d46 b8bc
000003a0: 7850 39bb 24c5 ff3b 96d2 90bb 9db1 21bc
000003b0: b26f 6d3a ca1f 9abb 5926 b2bb f831 103c
000003c0: 16a1 9eba a3be 093b 07ec 763c fecb 9c3b
000003d0: 252d 013c 5b40 8cbc b87d cabb 92c5 72bc
000003e0: 1e3c 713a 6e95 22bc a35b b1bb 5812 503c
000003f0: 9649 a4bb 4b5b 99bc b78e df3a cbca 723b

fc.bias f4 [2]
0.020744076 -0.026083576
00000000: 7bef a93c 39ad d5bc
