play_FlappyBird/results/flappybird/PPO_7/PPO_critic.pt (torch, 838824 bytes, 3 tensors)

l1.weight f4 [100, 2090]
00000000: 20fe 943c f491 8a3c fd53 0f3c 3de9 153c
00000010: 7529 d13b c083 aebd 5072 89bb 6187 9ebd
00000020: 3847 8bbd f6f3 4fbd 0d61 5fbd 3a2d 83bd
00000030: d191 02bd 5392 12bd d218 1c3b f0ed f13b
00000040: 976c c5bc 1a8b aebc dddd 4abc 6023 adbb
00000050: fbdc 00bd 0ef4 0a3c e509 76bc 823b f4bc
00000060: c3cf 443c 4e77 7b3c f46e 9ebc 2c57 a5bc
00000070: 4a71 04bd 91bf 9abc 9f88 94bd d988 dcbd
00000080: af9a 92bd ea23 a4bd 2829 aabd b6ba 83bd
00000090: c720 38bd bee9 a3bd e8a4 00bb ce30 aa3c
000000a0: 690f e3bc 85fb 193c c323 8ebc 19f0 83bd
000000b0: 0fc9 94bb afe0 78bd 0941 89bd 178c b9bd
000000c0: 575e 52bd c46e 40bd 390c 48bc 3e01 35bd
000000d0: 46fc 2abc 4980 a0bc a20d 263b dada 2dbc
000000e0: 8da2 d8bb 5d17 bbbc 258d 16bd 4b67 f83a
000000f0: 7b0a babc 4bfc 6bbc bd84 44bc a84f 33bb
00000100: 3350 a0bc 6bac 5dbc 2ad8 08bd 95a9 2abd
00000110: c189 4ebd 68af a7bd da29 d9bd c0e7 94bd
00000120: 7853 45bd ff55 65bd 5662 27bd e240 edbd
00000130: a94d 11bc 1dd4 3dbc a87e 70bc 1163 013c
00000140: 2721 c9bc 6ea5 cfbd 7ebe 99bc 20a9 93bd
00000150: e6f9 21bd 29ec 56bd 3f5a 30bd 7d3f 5fbd
00000160: 627c abbc bf54 31bd 85e6 c2bb b102 adba
00000170: 9e53 68bc eb3b edbb c0a4 88ba 727e 633c
00000180: abf0 b1bc d2f4 19bc 9cf4 a7bc d19a 9fbc
00000190: 31f7 0abc 756a 53bc 859b 0bbc 6f5a c8bc
000001a0: 06b2 b4bc 232a eabc 5e7f 92bd aeb1 b7bd
000001b0: d6da 80bd 9640 95bd efc3 49bd 2d80 37bd
000001c0: f226 27bd 60b6 d6bd 18c3 5abb 9f16 2abc
000001d0: f11f c7bc 41ad c9bc 4ef7 583c f951 8abd
000001e0: 1024 5abc 234b 4ebd ffa8 5cbd 7edb abbd
000001f0: dabd a2bd d6db 67bd 297b 02bd cda7 06bd
00000200: 0ebb 7ebc a08b 83bc 3c55 60bc 22ee 633c
00000210: 7308 8fbc e949 82bc 2d65 d9bc a009 06bd
00000220: b854 13bc c461 bbba 717b 69bc 52ed 0d3c
00000230: 30f5 c73b 72af 513c 4be9 a6bc 1130 1dbd
00000240: 3c21 2fbd 9fb8 9cbd b8f2 d2bd 88d7 bdbd
00000250: 2693 3bbd af30 e2bc fbd6 4fbd bb01 d8bd
00000260: b88a e83b 5075 b3ba 7ef3 a4ba a042 50bb
00000270: b507 23bc fa64 83bd 072c 1c3c 5efe 95bd
00000280: 9d61 0fbd 3e8b 46bd a080 91bd ba8f 71bd
00000290: ba12 f9bc 8aae 2ebd 978b 8ebc 4f82 69bc
000002a0: 40d9 173c c25e dcbc 801f 0abc 6a0b 6cbc
000002b0: cf03 773b 744e 92bc d5d4 ebbc 7fdb 96bc
000002c0: a264 1b3c 8800 a0bc ba0d b8bc 99b2 8cbc
000002d0: 8bc3 afbb 4ec4 4cbd f781 84bd 8ba2 aebd
000002e0: 4971 89bd f4d2 a6bd 8887 39bd f149 ecbc
000002f0: c700 2ebd d297 a9bd 60d2 dd3b dbd8 9cbc
00000300: 78a6 94bb 9fec c3bc 1760 2dbb 4d22 bbbd
00000310: a82c bdbc 6bdf 64bd 4a2e 73bd db2a afbd
00000320: 85ff 8dbd a8b3 9bbd d49e 82bc 0191 15bd
00000330: b1de e6bc 102b a6bc 90a4 b13b 21e8 8dbc
00000340: 85b4 6bbc 9dd3 cfbc 9473 4ebc e3eb 513b
00000350: f060 343c 9af8 1abc 25d7 383c aab9 ad3b
00000360: 7d5a 93bc 23c5 f23b afa0 7abc 7448 39bd
00000370: 79b9 83bd 04af 99bd 99ce 87bd 3afa abbd
00000380: fcfc 70bd 9fa3 4abd 3c70 bebc cfed a6bd
00000390: bc7e c7bb ca02 ebbb c91a 5b3c f49d 86bb
000003a0: 9759 c0bc a446 acbd 50c6 d93a 7a35 47bd
000003b0: e3f5 22bd 4b0d 8abd f093 7cbd 1c04 82bd
000003c0: 8aca 0ebd d4a6 0cbd 22cc 08bc 71f4 0fbc
000003d0: 1f09 4abc f61e f93b b18b 8f3b b4c5 b1bb
000003e0: 3d79 fabc fa27 68bc 1851 6ab9 41db c2ba
000003f0: a63a df3a eea8 b6bb de12 ec3b 4da2 23ba
0.018187582 0.016915299 0.008748052 0.009149847 0.006383116 -0.08521223 -0.0041945353 -0.07740665
-0.06800693 -0.05076977 -0.054535914 -0.06405111 -0.031877343 -0.035784077 0.0023818505 0.0073831007
-0.024099631 -0.021306563 -0.012381998 -0.005283758 -0.031460743 0.008481039 -0.0150170075 -0.029813532
0.012012425 0.015348269 -0.019340016 -0.020183168 -0.032334603 -0.018890174 -0.07252621 -0.10768289
-0.0715841 -0.080146626 -0.08308631 -0.06432097 -0.044953134 -0.08003567 -0.0019629542 0.020775225
-0.02771731 0.009398346 -0.017351037 -0.06442279 -0.0045405696 -0.06076115 -0.067018576 -0.09059923
-0.0513595 -0.046980634 -0.012209945 -0.044190638 -0.010436123 -0.019592421 0.0025337716 -0.01061126
-0.0066111744 -0.022838289 -0.0367557 0.0018951682 -0.022710076 -0.014403413 -0.011994538 -0.0027360711
-0.019569492 -0.013529877 -0.033409275 -0.041665632 -0.05042434 -0.08187753 -0.10603686 -0.07270765
-0.048175305 -0.055990215 -0.040865265 -0.11584641 -0.008868613 -0.011586216 -0.014678635 0.007897154
-0.024551941 -0.10138975 -0.018767592 -0.072099924 -0.039544962 -0.052471314 -0.043054815 -0.054503907
-0.020933334 -0.04329371 -0.00594789 -0.0013199655 -0.014180092 -0.007239809 -0.0010425076 0.013885127
-0.021721205 -0.009396749 -0.020502381 -0.019483002 -0.008481787 -0.012903799 -0.008520965 -0.024457185
-0.022057544 -0.028584545 -0.071531996 -0.089694366 -0.0629174 -0.072877094 -0.049259122 -0.044799972
-0.040808626 -0.10484004 -0.0033380445 -0.01038137 -0.024307223 -0.024618747 0.013242556 -0.06753916
-0.013314262 -0.050364625 -0.053872105 -0.08391474 -0.079463676 -0.056606136 -0.031855736 -0.03287487
-0.015547527 -0.01605779 -0.013692196 0.013911756 -0.017460084 -0.015904384 -0.026537502 -0.032724023
-0.0089923665 -0.0014296104 -0.014250622 0.008662539 0.0061022267 0.012798177 -0.020374915 -0.038375918
-0.042756304 -0.07652401 -0.10300201 -0.09269625 -0.04579463 -0.027611105 -0.05074213 -0.10547205
0.0070966147 -0.0013691578 -0.0012584773 -0.0031777993 -0.009950568 -0.06415744 0.009531981 -0.07323907
-0.0350052 -0.048472635 -0.071046114 -0.05897496 -0.030404437 -0.042646922 -0.017400546 -0.014252259
0.009268105 -0.026900653 -0.008430362 -0.014407018 0.003769148 -0.017859675 -0.02878801 -0.01841521
0.009484442 -0.019531503 -0.022467483 -0.017175006 -0.0053638867 -0.0499919 -0.06470101 -0.08527096
-0.067110606 -0.08145705 -0.04529527 -0.028843852 -0.04248121 -0.082809106 0.0067694634 -0.019146373
-0.004536446 -0.02391654 -0.002645498 -0.09137402 -0.023092583 -0.05587713 -0.059370317 -0.08553096
-0.06933502 -0.07602626 -0.015944876 -0.03651524 -0.02818236 -0.020284206 0.0054212287 -0.017322602
-0.014386301 -0.02536946 -0.012600798 0.0032031469 0.01100944 -0.009458685 0.011281763 0.005301674
-0.017987484 0.0074087544 -0.015297099 -0.045235112 -0.064318605 -0.07504085 -0.06631202 -0.08397336
-0.058835015 -0.049472447 -0.023246877 -0.08150827 -0.006088106 -0.0071719633 0.013373085 -0.004108185
-0.02348022 -0.08411911 0.0016614888 -0.048634984 -0.039785277 -0.06740817 -0.06166452 -0.0634844
-0.034861125 -0.034338787 -0.00834945 -0.008786307 -0.012331276 0.007602568 0.004380666 -0.0054251794
-0.030575389 -0.014169687 -0.00022346189 -0.0014866368 0.0017031028 -0.005574337 0.0072043976 -0.0006242141

l1.bias f4 [100]
00000000: d2d2 bcbd b1b7 dfbc 32fb 00bc 3505 3cbc
00000010: b75d aebc 96ff b4bc 0637 93bc 877d d9bb
00000020: b20e b9bc 6951 abbb 6300 13bc a974 f6bb
00000030: abea a9bc 324a d2bc 70c8 40bc 9145 72bd
00000040: b774 93bc ea96 3bbc 3dc4 babc e9ef 80bd
00000050: c6c5 a8bc 5dc0 88bb 054a b5bc 1316 3c3a
00000060: 9523 92bb b8b3 c6bc eefa 7cbb 636b c9bc
00000070: 490f 93bc 2734 85bb 3075 9fbc 1769 ea3d
00000080: 81d3 95bc 12fd c6bc 3f9a c0bc ba95 97bc
00000090: b460 05bb dea9 b7bc c5a5 ccbb 6e23 40bc
000000a0: 6b7d 81bd 4b5d b4bc e7a7 cfbc 8900 ffbc
000000b0: c6ab 403e 5991 2ebb 60e3 a8bc aa61 9b3b
000000c0: 1eda 2bbc 432d a6bc 9f39 a6bc f42b b03c
000000d0: 0459 b1bc 0f32 57ba 85eb febb 10ba 2abb
000000e0: 8237 6fbb c5de ccbc 8491 4bbc 6260 a8bc
000000f0: a3a1 80bc fc71 86bb 4ec8 1c3e 24ce 87bc
00000100: b2bc b9bc dd9f 203e 4059 f13d a563 10bc
00000110: 73de a2bc a33c 6abc fa50 a9bc 6d2a 81bc
00000120: 9d7b 9bbc febd b9bc b771 23bc 485d feb9
00000130: 316c a5bc b6f1 66bc d244 40bc 1b58 cfbc
00000140: 55ce 0dbc 4268 4fbd 4112 a0bc 0929 d1bc
00000150: bdf2 d0bc c4fa 85bc bb0f e6bd 67f8 29bd
00000160: 207c eebc b831 52be 3aac 4fbc e0e5 bbbb
00000170: d9e0 e3bb 17c4 87bc d6d2 92bc aaf0 0d3a
00000180: 38c4 2dbb 6813 17bc e823 aabc 66aa 263e
-0.09219898 -0.02730927 -0.00787239 -0.011475851 -0.021284921 -0.02209453 -0.017970573 -0.0066372785
-0.022590015 -0.0052282107 -0.00897226 -0.007521231 -0.020741781 -0.025670145 -0.011766538 -0.059148375
-0.01799999 -0.011449555 -0.022798652 -0.06295759 -0.020602118 -0.004173322 -0.022130022 0.000717492
-0.004459808 -0.024255618 -0.0038601714 -0.024587339 -0.017951624 -0.004065055 -0.019465059 0.114458255
-0.01828933 -0.024290595 -0.02351105 -0.018504012 -0.002035183 -0.022419866 -0.006245347 -0.011727197
-0.0632275 -0.022017142 -0.025348617 -0.031128185 0.18815526 -0.0026636927 -0.020616233 0.004741867
-0.010489015 -0.020285254 -0.020291148 0.021505333 -0.021648891 -0.00082090584 -0.007779541 -0.0026050843
-0.003650159 -0.025008569 -0.01242483 -0.020553771 -0.015702074 -0.0041029435 0.15310785 -0.016577788
-0.022672985 0.15685983 0.11784601 -0.00881282 -0.019881463 -0.0142966835 -0.020668495 -0.0157673
-0.018979842 -0.022673603 -0.009975842 -0.00048516155 -0.020193191 -0.014095714 -0.011735158 -0.025310567
-0.00865515 -0.050636537 -0.019539954 -0.025532262 -0.025506372 -0.016354926 -0.11233469 -0.04149666
-0.029111922 -0.20526779 -0.012675339 -0.0057341903 -0.006954294 -0.016572995 -0.0179228 0.0005414585
-0.002651466 -0.009220935 -0.020769075 0.1627594

l2.weight f4 [1, 100]
00000000: 397c 8fbd a0c3 5b3d daf9 8f3d c303 eebb
00000010: c589 993d e5c1 533d 82ba e6ba 6562 4c3a
00000020: 9b26 073c 890e ea39 9c26 303d d9f5 00ba
00000030: c484 133d 9ed1 7fbc 2c28 aa3d e201 9dba
00000040: d98a 353d cdef 323d d7ee 33bc 26ed db3a
00000050: b0fe 09bd 901e b23d 8323 403c c75d 88bb
00000060: 87d5 9d3d a31c faba b298 8fbb 661c a93d
00000070: e13f aebd ebc9 a0ba 15d2 98bb b133 d3bd
00000080: 891f b43c 5358 91bd 19d5 23bd 928d af3d
00000090: 87f7 e7b9 d7bd 5cba 3ac7 b13c ff3e 9cbd
000000a0: 320a a9bd 9b0c 703d 0b8b b43d 8518 023d
000000b0: ecda 41be f5fa 913b 50ef 54bb b9d4 90ba
000000c0: d9ce d73c 6349 093c 352e 093d 36ac d8bc
000000d0: eba1 b63b 15ac 943b de66 dbbc eafd 723d
000000e0: c4a9 aa3d 71a3 31bd 8464 8dbb 96d3 b63a
000000f0: cd8a c2bc 36cc acbd f246 a33d 98c6 c5b8
00000100: 4946 01bd 996e 24be ed06 88bd 2a94 ac3c
00000110: 5d75 183c d0b4 64bd 61fd 083c 3ffd c0bb
00000120: 9c8b 453c 8abd 1cbc 34a5 60bc f07e 1c3b
00000130: 7b5f 54bb 5d3f a4bd bfd2 953d 43cd 373d
00000140: a40c 7b3d c9c9 883d e3c2 4f3d dbaf 423d
00000150: ca17 6cbd 8e9c 103c 9011 b5bd 9347 a93d
00000160: 8628 aebb b070 39bd adb3 8dbd 4690 9ebd
00000170: 9443 863d 8307 ed3c 7ac7 84bd acd6 82b9
00000180: 9249 a83d 1661 093a 744d b7bd bd96 1fbe
-0.070061155 0.05365336 0.07030077 -0.007263632 0.074969806 0.051698584 -0.0017603191 0.00077966443
0.00824895 0.00044642788 0.04300557 -0.00049194467 0.036015287 -0.0156139415 0.083084434 -0.001197871
0.04432187 0.043685723 -0.010982237 0.001677905 -0.033690155 0.086972356 0.011727217 -0.0041615698
0.07706743 -0.0019082021 -0.0043822164 0.0825737 -0.08508278 -0.0012267207 -0.0046637156 -0.10312594
0.021987693 -0.07096925 -0.039998148 0.08571924 -0.00044244176 -0.00084206223 0.021701444 -0.07629203
-0.08253898 0.05860577 0.08815583 0.031761665 -0.18931168 0.0044549652 -0.0032491274 -0.0011049724
0.02634375 0.008379313 0.033491332 -0.026449304 0.0055735013 0.0045371153 -0.02678245 0.059324183
0.083331615 -0.04336876 -0.004314961 0.0013948556 -0.023747826 -0.08437388 0.07972516 -9.430683e-05
-0.03156117 -0.16057815 -0.06641946 0.021066744 0.009305325 -0.0558365 0.0083611915 -0.0058895643
0.012057211 -0.009566674 -0.0137112625 0.0023879372 -0.0032405544 -0.08019898 0.07315587 0.044873487
0.061291352 0.066791125 0.050722968 0.04753099 -0.057639875 0.008826388 -0.088412404 0.08265605
-0.0053148894 -0.045273483 -0.06919036 -0.07742362 0.06555858 0.028934246 -0.0648336 -0.00024955475
0.082171574 0.0005240602 -0.0895032 -0.15584846
