play_FlappyBird/results/flappybird/PPO_7/PPO_actor.pt (torch, 839200 bytes, 4 tensors)

l1.weight f4 [100, 2090]
-0.06536582 -0.02404965 0.018868389 0.0045502614 -0.035936978 -0.016634429 -0.07159225 -0.08266094
-0.051833816 -0.08498163 -0.06779542 0.045506306 -0.012337981 -0.00010438157 0.00768154 0.023607539
0.062174086 0.025043184 0.01685482 -0.022123814 -3.0529995e-05 -0.045578755 0.030074991 -0.011324172
-0.01561924 0.029611116 0.009888824 -0.03626049 -0.0551334 -0.02454058 -0.023836143 -0.0620494
-0.0066178595 -0.07311368 -0.054043222 -0.052651748 -0.05799275 -0.016963907 -0.06310609 -0.020431155
0.029967658 -0.015048513 -0.0372 -0.034609724 -0.06916209 -0.06151987 -0.058980886 -0.07485911
0.032534704 0.022038762 -0.024008287 -0.0027184077 0.009325716 0.0036808837 0.045736212 0.01631969
0.037228677 -0.019219358 0.03176767 -0.045065537 0.019057529 -0.024641015 -0.01797624 0.03145921
0.017471299 -0.024442097 -0.031729974 -0.028140305 -0.03051376 -0.06336845 0.006170349 -0.06051117
-0.049719203 -0.033557404 -0.08460834 -0.047545176 -0.027388511 -0.03547009 0.03742735 0.004907327
-0.0622602 -0.0075972513 -0.068774976 -0.08408645 -0.019304067 -0.019064391 0.02457805 0.050921436
-0.00993011 -0.027300652 0.008601244 -0.0064217737 0.05765045 -0.0083692 0.014846148 -0.022178445
0.0004453623 -0.041433305 0.019776348 -0.036757432 -0.008722963 0.0066684266 0.00017498307 -0.03939716
-0.06425693 -0.015117326 -0.033451796 -0.045435537 -0.0050084037 -0.06279496 -0.050902326 -0.040924374
-0.073952086 -0.015756126 -0.033058453 -0.019513126 0.028588364 0.024660205 -0.04845124 -0.038682815
-0.06905763 -0.041869007 -0.027765665 -0.054448206 -0.10329871 -0.075938776 -0.021353811 -0.009674075
-0.007862131 0.023514932 0.030516438 0.006989566 0.015282012 -0.011141202 0.003885605 -0.039815545
0.04846598 -0.028108133 -0.029419513 0.03232756 0.01458606 -0.014708 -0.060793225 -0.03424663
-0.02419613 -0.056031827 -0.015409513 -0.06727915 -0.011243583 -0.06225027 -0.096152894 -0.02806019
-0.060932927 -0.03960306 0.01344611 -0.015407151 -0.040760998 -0.03429156 -0.05440793 -0.05099325
-0.05100751 -0.14905857 -0.123308666 -0.042976845 -0.03573213 -0.021585332 0.032799434 -0.0015351725
0.024214553 0.0014882283 0.046988137 -0.0055250702 0.0007096211 -0.037912875 0.010720898 -0.053475436
-0.028700527 0.02235355 -0.008970584 -0.0446104 -0.050714362 -0.04630016 -0.0040834183 -0.0512222
-0.030010514 -0.04926288 -0.05321124 -0.04901084 -0.05654373 -0.042223014 -0.040104307 -0.052215043
0.011315949 -0.002886151 -0.06019864 -0.03423481 -0.0729505 -0.07207866 -0.04553747 -0.036107127
0.017458018 0.05802147 -0.018225389 -0.018060552 4.0214236e-05 0.028202847 0.02311601 0.032342892
0.03418969 -0.019345816 -0.005111315 -0.0555145 0.014077431 -0.018258298 -0.022400262 -0.006358333
0.020368513 -0.032118566 -0.036276985 -0.034441873 -0.006283897 -0.06167479 -0.039245572 -0.05727147
-0.03661895 -0.036904212 -0.094949916 -0.018622635 -0.06977341 -0.03960942 0.020264046 -0.014539488
-0.03753099 -0.033063725 -0.057330113 -0.081383914 -0.020948403 0.03110222 0.08175384 -0.0078037316
-0.039490446 -0.0068055377 0.0031098605 0.015022985 0.046767417 0.033761304 0.022728216 -0.006950207
-0.005942948 -0.062487513 0.04928035 -0.04641786 -0.029219355 0.023163697 0.0079587065 -0.019149842
00000000: 84de 85bd c603 c5bc e191 9a3c 5c1a 953b
00000010: a732 13bd ed44 88bc f59e 92bd 244a a9bd
00000020: b24f 54bd d90a aebd 53d8 8abd d264 3a3d
00000030: 3e25 4abc 6ee7 dab8 6eb5 fb3b 9964 c13c
00000040: 41aa 7e3d 5d27 cd3c 1f13 8a3c 003d b5bc
00000050: 550d 00b8 cab0 3abd d45f f63c 0589 39bc
00000060: d7e7 7fbc 0393 f23c bc04 223c e185 14bd
00000070: 8fd3 61bd 5409 c9bc 0444 c3bc 8327 7ebd
00000080: a1da d8bb a0bc 95bd 6d5c 5dbd 5ca9 57bd
00000090: ce89 6dbd e4f7 8abc c43d 81bd 3d5f a7bc
000000a0: bc7e f53c 0a8e 76bc 075f 18bd edc2 0dbd
000000b0: dba4 8dbd 42fc 7bbd f195 71bd bc4f 99bd
000000c0: 1c43 053d a28a b43c 07ad c4bc 5027 32bb
000000d0: e3ca 183c fb3a 713b e555 3b3d dfb0 853c
000000e0: 197d 183d ea71 9dbc d11e 023d a496 38bd
000000f0: 891e 9c3c f4db c9bc e842 93bc 5fdb 003d
00000100: f81f 8f3c cb3a c8bc 4af7 01bd 7f86 e6bc
00000110: fef7 f9bc 51c7 81bd a430 ca3b 90da 77bd
00000120: 5da6 4bbd 7d73 09bd 2347 adbd bbbe 42bd
00000130: df5d e0bc 1649 11bd 6c4d 193d a4cd a03b
00000140: 8d04 7fbd 5df2 f8bb e5d9 8cbd 8435 acbd
00000150: 9023 9ebc ed2c 9cbc e857 c93c ff92 503d
00000160: e6b1 22bc 9ea5 dfbc 3bec 0c3c be6d d2bb
00000170: e122 6c3d f81e 09bc 423d 733c 92af b5bc
00000180: 847f e939 f8b5 29bd 0202 a23c f68e 16bd
00000190: c2ea 0ebc d182 da3b a97b 3739 eb5e 21bd
000001a0: 2399 83bd a9ae 77bc c004 09bd 9d1a 3abd
000001b0: 891d a4bb a59a 80bd f57e 50bd 51a0 27bd
000001c0: 3174 97bd fe12 81bc 4d68 07bd fed9 9fbc
000001d0: 2532 ea3c 3304 ca3c cf74 46bd df71 1ebd
000001e0: 166e 8dbd d67e 2bbd d274 e3bc 1505 5fbd
000001f0: 468e d3bd ca85 9bbd 30ee aebc 0380 1ebc
00000200: 2bd0 00bc 63a2 c03c 9cfd f93c bb08 e53b
00000210: 6761 7a3c 9789 36bc a2a5 7e3b a015 23bd
00000220: 4384 463d 0743 e6bc 3101 f1bc e769 043d
00000230: 5ffa 6e3c d3f9 70bc 5102 79bd 3246 0cbd
00000240: f636 c6bc a181 65bd 2f78 7cbc a7c9 89bd
00000250: 0137 38bc 24fa 7ebd cfeb c4bd 7cde e5bc
00000260: ce94 79bd d136 22bd 134d 5c3c 466e 7cbc
00000270: 01f5 26bd 4f75 0cbd d9da 5ebd 4cde 50bd
00000280: 40ed 50bd cfa2 18be 4189 fcbd 7d08 30bd
00000290: db5b 12bd b9d3 b0bc b358 063d d737 c9ba
000002a0: 995d c63c a810 c33a a276 403d a60b b5bb
000002b0: de05 3a3a 884a 1bbd b5a6 2f3c 0f09 5bbd
000002c0: 5e1d ebbc cb1e b73c 5bf9 12bc 65b9 36bd
000002d0: ddb9 4fbd 3da5 3dbd 32ce 85bb 5fce 51bd
000002e0: 9cd8 f5bc e0c7 49bd 07f4 59bd 97bf 48bd
000002f0: 669a 67bd 0af2 2cbd 6a44 24bd 71df 55bd
00000300: 8866 393c 9425 3dbb d992 76bd cd39 0cbd
00000310: 1267 95bd fa9d 93bd 8085 3abd 11e5 13bd
00000320: 1e04 8f3c eca7 6d3d 694d 95bc b9f3 93bc
00000330: b5ab 2838 a809 e73c c95d bd3c fb79 043d
00000340: 7d0a 0c3d 1e7b 9ebc d17c a7bb 2c63 63bd
00000350: 06a5 663c 6d92 95bc c180 b7bc 9059 d0bb
00000360: dedb a63c c28e 03bd 2d97 14bd ec12 0dbd
00000370: 26e9 cdbb b49e 7cbd f7bf 20bd 7d95 6abd
00000380: c1fd 15bd df28 17bd 1a75 c2bd 7f8e 98bc
00000390: 5de5 8ebd 7d3d 22bd c900 a63c 0837 6ebc
000003a0: 18ba 19bd d46d 07bd fbd2 6abd 9cac a6bd
000003b0: fc9b abbc 15ca fe3c 8f6e a73d 72b6 ffbb
000003c0: bcc0 21bd fd00 dfbb cdce 4b3b f722 763c
000003d0: 318f 3f3d 4b49 0a3d 8630 ba3c 90be e3bb
000003e0: 10bd c2bb e8f2 7fbd 31da 493d a720 3ebd
000003f0: 6e5d efbc cbc1 bd3c 3c65 023c 21e0 9cbc

l1.bias f4 [100]
0.56621474 -0.052180864 -0.045282844 -0.038177982 -0.037007317 -0.040998828 -0.060622264 -0.09461514
-0.05927082 -0.009785794 0.51858985 0.3743009 0.28363663 0.24606876 -0.048299514 -0.04904209
-0.01999367 -0.035268974 -0.03565389 0.5143852 -0.039239507 0.22201093 0.38756987 -0.048880365
-0.024055852 0.55920905 0.62464476 -0.00872031 -0.06308747 -0.01829942 -0.047297932 -0.03514174
-0.03330825 0.5631811 -0.03519104 -0.03673952 -0.03551901 0.15288061 -0.037921254 -0.080393285
0.5400298 0.65507275 -0.093508705 -0.048861768 -0.04117647 -0.034298487 -0.020881148 -0.08322529
-0.043305133 0.50761145 -0.04211219 -0.061749633 -0.059188787 -0.089750335 0.26732838 -0.034669958
-0.09014165 -0.023943339 -0.02637115 0.42030695 0.31041095 0.5507096 0.4668468 -0.029727213
0.6200623 -0.09447342 -0.07687159 -0.063379824 -0.041227717 0.38611075 -0.018558118 -0.04159051
-0.06247056 -0.09123481 -0.034548126 -0.039177738 -0.08134195 0.26250762 -0.10899912 0.16220097
-0.03641046 -0.07660277 -0.041010898 -0.076772735 -0.08175149 0.27911925 -0.06856112 -0.07721692
-0.04348474 0.41693634 -0.052004144 -0.04254472 -0.045809284 0.48035002 0.6574428 -0.07214089
-0.032336727 0.47639984 -0.02234699 -0.025105169
00000000: 73f3 103f 9abb 55bd 817a 39bd 8460 1cbd
00000010: fc94 17bd 63ee 27bd 0d4f 78bd 95c5 c1bd
00000020: f6c5 72bd 9854 20bc 4ec2 043f 5ea4 bf3e
00000030: d238 913e 73f9 7b3e b6d5 45bd 5ce0 48bd
00000040: c4c9 a3bc 3376 10bd d009 12bd c0ae 033f
00000050: 9bb9 20bd d556 633e 8f6f c63e c736 48bd
00000060: c710 c5bc 5328 0f3f b8e8 1f3f a2df 0ebc
00000070: 0134 81bd aae8 95bc 7abb 41bd c9f0 0fbd
00000080: 3b6e 08bd a32c 103f 7b24 10bd 2e7c 16bd
00000090: 627c 11bd bc8c 1c3e 5153 1bbd 3ca5 a4bd
000000a0: 653f 0a3f d9b2 273f 7e81 bfbd 4723 48bd
000000b0: a9a8 28bd 927c 0cbd f10e abbc 0572 aabd
000000c0: b960 31bd d3f2 013f d57d 2cbd 2fed 7cbd
000000d0: f16f 72bd 06cf b7bd 44df 883e 1602 0ebd
000000e0: 2f9c b8bd d224 c4bc 4f08 d8bc 7932 d73e
000000f0: 2fee 9e3e 4efb 0c3f 8b06 ef3e 7c86 f3bc
00000100: 67bc 1e3f 487b c1bd da6e 9dbd 48cd 81bd
00000110: 65de 28bd 4fb0 c53e 3207 98bc d05a 2abd
00000120: 21e1 7fbd 51d9 babd 5682 0dbd d678 20bd
00000130: 9c96 a6bd 6667 863e ee3a dfbd 0318 263e
00000140: 2223 15bd eae1 9cbd 0bfb 27bd 063b 9dbd
00000150: 536d a7bd b8e8 8e3e c669 8cbd e823 9ebd
00000160: 0e1d 32bd ae78 d53e 4c02 55bd 5f43 2ebd
00000170: 84a2 3bbd 70f0 f53e 2c4e 283f 9abe 93bd
00000180: 8473 04bd aeea f33e 0911 b7bc 5ba9 cdbc

l2.weight f4 [2, 100]
-0.19177221 0.03435197 0.089267984 0.07953258 0.026561605 -0.047353357 0.14431085 0.08670163
-0.023823755 0.047840025 -0.3015643 -0.16007699 -0.095639385 -0.0754924 0.038851555 0.0560352
0.0074731074 0.044397987 0.00039510595 -0.18991795 0.12221329 0.0009752418 -0.1876039 0.056916334
0.07388651 -0.20973891 -0.06347744 -0.03860526 0.16046283 -0.015646754 0.16522811 -0.021608327
0.1170539 -0.08901072 0.0006594211 0.07785101 0.19693455 0.0017758148 0.016304545 0.058287323
-0.08801442 -0.27834567 0.22788648 0.0915933 0.013534895 0.07449712 0.08879499 0.06955272
0.039504576 -0.06148021 0.015373826 0.052038636 0.07502808 -0.028377963 -0.09472903 0.087247774
0.016574359 -0.08121808 0.075330496 -0.2128381 -0.099744864 -0.17297198 -0.24178368 0.06803915
-0.066450156 0.06391819 0.170335 0.094121896 -0.036544684 -0.1522406 -0.0052123447 0.02056177
0.15656672 0.06578617 -0.040299267 -0.021198938 0.07529826 -0.009352096 0.072572395 -0.09619873
0.017113023 -0.025006553 0.06285414 0.13043374 0.037737757 -0.11074958 0.14496325 0.023898866
0.18875362 -0.07426146 0.012575229 0.07355361 0.14395264 -0.08028478 -0.29507425 0.03544868
-0.071137555 -0.0957874 -0.04881646 0.08940576 0.2580571 -0.097546525 0.012311084 -0.014254674
-0.03666381 0.016113127 -0.052262787 0.038517628 -0.02144282 -0.0010948287 0.32025063 0.16904236
-0.0070808525 0.097136036 -0.1347278 -0.0634498 -0.068865605 -0.04437697 -0.0072916364 0.106464736
-0.034029398 0.1085784 0.15519595 -0.03247794 -0.017083813 0.19176546 0.24946362 0.015551887
0.008868971 -0.020233609 -0.1578172 0.028707247 -0.20241329 0.1657698 -0.009793848 -0.008381445
-0.060924347 0.04916919 -0.066686496 -0.0074577658 0.15366113 0.31630102 -0.20865035 0.046622165
-0.07751844 0.10858794 -0.015011998 -0.008280879 -0.059269797 0.12472182 -0.11971475 -0.120220706
-0.06107799 -0.055068586 0.0899175 -0.08751279 -0.16363545 -0.015599786 -0.062252074 0.1622627
0.12248777 0.17960663 0.14457646 -0.021073703 0.21303773 0.0030904945 -0.03348219 -0.009598799
-0.046452086 0.042417012 0.07522316 -0.01128018 -0.16730328 -0.024833579 -0.032878555 -0.089434
0.02243331 0.108099334 -0.015763862 -0.046805903 -0.041355804 0.006090253 -0.08090574 -0.116797894
-0.039026737 0.057304278 -0.10409413 -0.11980645 -0.18439366 0.18108816 0.05374527 -0.012594754
-0.111330114 0.10080327 0.24642192 -0.13876103 0.085698105 0.16831455 -0.049084276 -0.01177525
00000000: ef5f 44be a7b4 0c3d 22d2 b63d fae1 a23d
00000010: b997 d93c 98f5 41bd 39c6 133e a090 b13d
00000020: 092a c3bc e7f3 433d a366 9abe 39eb 23be
00000030: 95de c3bd c29b 9abd cf22 1f3d 2a85 653d
00000040: f8e0 f43b aada 353d 3926 cf39 da79 42be
00000050: f64a fa3d 5fa7 7f3a 3d1b 40be 1a21 693d
00000060: d051 973d ccc5 56be 7600 82bd 8d20 1ebd
00000070: 5e50 243e 9f2d 80bc 8f31 293e f203 b1bc
00000080: f5b9 ef3d 414b b6bd 00dd 2c3a 5a70 9f3d
00000090: 36a9 493e 75c2 e83a 1c91 853c b0be 6e3d
000000a0: e740 b4bd 5383 8ebe 135b 693e 4595 bb3d
000000b0: 77c1 5d3c f291 983d 26da b53d a871 8e3d
000000c0: 8dcf 213d acd2 7bbd 80e2 7b3c 7726 553d
000000d0: 52a8 993d e778 e8bc 4b01 c2bd f6ae b23d
000000e0: f3c6 873c aa55 a6bd e046 9a3d 3bf2 59be
000000f0: 0947 ccbd 911f 31be 2496 77be 1c58 8b3d
00000100: 0517 88bd 8ae7 823d 4c6c 2e3e fbc2 c03d
00000110: e1af 15bd f6e4 1bbe 51cc aabb 2871 a83c
00000120: 0753 203e e6ba 863d d810 25bd 65a9 adbc
00000130: f935 9a3d 8939 19bc d6a0 943d d703 c5bd
00000140: 9c30 8c3c 8bda ccbc acb9 803d 6c90 053e
00000150: e892 1a3d add0 e2bd 3f71 143e 8ec7 c33c
00000160: a148 413e 6416 98bd 5508 4e3c 46a3 963d
00000170: 5268 133e 596c a4bd f913 97be a332 113d
00000180: 91b0 91bd 2f2c c4bd c5f3 47bd 5e1a b73d
00000190: 0f20 843e 79c6 c7bd 6eb4 493c 708c 69bc
000001a0: cb2c 16bd adff 833c 8111 56bd a9c4 1d3d
000001b0: daa8 afbc 5b80 8fba e4f7 a33e 7119 2d3e
000001c0: 7f06 e8bb 42ef c63d 16f6 09be f8f1 81bd
000001d0: 6909 8dbd a0c4 35bd aeee eebb 2f0a da3d
000001e0: 6962 0bbd 5a5e de3d b0eb 1e3e 9707 05bd
000001f0: 5af3 8bbc 2a5e 443e 6473 7f3e 58cd 7e3c
00000200: 294f 113c f4c0 a5bc d59a 21be 762b eb3c
00000210: 6e45 4fbe 8fbf 293e 6076 20bc 5452 09bc
00000220: cf8b 79bd a265 493d ee92 88bd 4660 f4bb
00000230: 5859 1d3e 35f2 a13e 70a8 55be e2f6 3e3d
00000240: fdc1 9ebd 5b63 de3d e2f4 75bc 86ac 07bc
00000250: e3c4 72bd 276e ff3d 022d f5bd 4636 f6bd
00000260: ea2c 7abd 998f 61bd ab26 b83d e839 b3bd
00000270: 0d90 27be 3f96 7fbc 08fc 7ebd 3128 263e
00000280: deda fa3d cdea 373e da0b 143e c2a2 acbc
00000290: 9026 5a3e e589 4a3b 9f24 09bd 4844 1dbc
000002a0: 8b44 3ebd 76bd 2d3d 9a0e 9a3d 81d0 38bc
000002b0: 8d51 2bbe ca6f cbbc aaab 06bd 2c29 b7bd
000002c0: 10c6 b73c 2f63 dd3d 3723 81bc 8cb7 3fbd
000002d0: b464 29bd bf90 c73b e9b1 a5bd bc33 efbd
000002e0: 80da 1fbd e4b7 6a3d 4e2f d5bd 165d f5bd
000002f0: b1d1 3cbe 2d6f 393e 0024 5c3d 3a5a 4ebc
00000300: 0b01 e4bd f271 ce3d 0756 7c3e 5f17 0ebe
00000310: 7d82 af3d a65a 2c3e 980c 49bd faec 40bc

l2.bias f4 [2]
-0.26251844 0.3751411
00000000: d168 86be 7f12 c03e
