first_game_pong/results/Pong-v0/REINFORCE_9/REINFORCE.pt (torch, 766910 bytes, 28 tensors)

conv_layers.0.weight f4 [32, 1, 3, 3]
0.04035466 0.063417114 0.023710197 -0.08675134 0.043795723 0.15793814 -0.058625344 0.014894944
0.124376096 0.05017784 -0.004941338 0.026463209 -0.07047216 0.035596497 -0.062584884 -0.21313049
-0.09497902 0.0039568697 -0.048871525 -0.19762611 0.07732113 -0.15789862 -0.15129247 0.10925412
-0.13879427 0.015955832 -0.034045454 0.10623234 -0.048888408 0.003567553 0.06791557 0.16390446
-0.0040917033 -0.068665475 -0.06885048 0.004350174 -0.005905948 0.07352926 0.15353583 -0.029738637
0.0034879094 -0.028093588 -0.044816554 -0.037394326 0.034705143 0.031332143 0.1193354 0.10911878
-0.031906664 0.017405089 0.0019401497 0.018907417 0.038929682 -0.07328568 -0.12851605 0.11086434
-0.0043610837 -0.05387722 -0.09891748 0.045311 -0.005202642 -0.06282086 0.00959431 -0.025911648
0.019811021 0.05892609 -0.031970132 -0.09462584 -0.042888287 -0.059688255 -0.100750566 -0.026708419
0.10931474 0.23934796 0.071352884 0.022561083 0.040233597 -0.028938143 -0.0044271564 -0.02672721
0.04643823 -0.0015114036 -0.0420931 -0.057372436 -0.09478257 -0.08743835 -0.016568966 -0.009337309
0.037580106 -0.058114015 0.011571764 0.027384281 -0.09427844 -0.20374109 -0.01399536 -0.05079189
0.004537856 -0.07311711 0.07148345 -0.18670206 0.122185364 0.07757824 0.098772116 -0.11891734
0.017275449 -0.1451585 0.075246446 -0.08382885 0.10901709 0.029851928 0.0079924865 -0.07058783
0.0024074558 -0.018443057 0.006062155 -0.067946956 -0.07120806 -0.0012884393 -0.045749955 0.033421822
-0.07183082 0.051863033 0.07926746 -0.05133819 0.07166976 -0.027338209 -0.007992981 -0.0010375001
-0.0006517082 -0.12331678 -0.044335473 -0.13681024 0.066592105 0.06911323 0.09386468 0.081301086
-0.08843809 -0.102654725 -0.087971106 -0.12758018 -0.17261627 0.041426547 -0.051758714 0.09607854
0.04122184 0.16221847 0.11539564 0.13388667 -0.119506925 -0.04320312 0.07330862 0.09738603
-0.07167385 0.18400379 0.05937389 0.12667954 0.051687844 -0.009635586 0.020438476 -0.031399146
-0.025127897 -0.037591774 -0.010758959 0.026714332 -0.042471126 0.08693998 0.07965487 0.019866934
-0.071629606 -0.080008864 0.07324385 -0.08036411 -0.098151095 -0.046246246 0.10585516 0.0065089683
-0.024188928 -0.015696295 0.050148576 -0.1259723 -0.09288276 -0.08060549 0.02361409 0.02263769
0.0093475105 -0.12545083 -0.025500033 -0.07500903 0.027330764 0.13859633 -0.06355578 0.0038663778
-0.019523777 -0.085575625 0.16527686 0.03141677 0.08500533 0.11161738 -0.04706706 0.11564951
-0.10744667 -0.057033874 0.21338058 -0.028126428 -0.017781839 0.03070549 0.088390775 -0.022841195
-0.018382998 0.08708576 -0.08293792 0.07738773 0.027024662 -0.028723434 0.028294979 -0.10227809
0.0059188497 -0.058814783 -0.032704495 0.14350286 -0.03283936 -0.03769491 -0.04011416 -0.07175427
-0.010969292 -0.098886214 0.08369652 -0.026121503 -0.12519097 -0.05879931 -0.08263887 -0.11341898
-0.10434688 -0.014130932 -0.1168185 -0.2421656 0.027229019 0.042880125 -0.04860087 -0.069870114
-0.0016024115 -0.05100169 -0.050043862 0.0549364 -0.048802193 0.05678527 -0.050601654 -0.04596824
-0.07833087 0.0060731247 -0.016877748 -0.20189644 -0.020049762 0.11806077 -0.057130463 -0.046344023
00000000: ee4a 253d d5e0 813d e33b c23c b0aa b1bd
00000010: 2563 333d 89ba 213e 2121 70bd ec09 743c
00000020: e5b8 fe3d 4787 4d3d f3ea a1bb 5fc9 d83c
00000030: b553 90bd a2cd 113d 812c 80bd e13e 5abe
00000040: 5c84 c2bd a1a8 813b 822d 48bd 805e 4abe
00000050: 8a5a 9e3d 2db0 21be 6aec 1abe a0c0 df3d
00000060: 1620 0ebe ceb5 823c 3f73 0bbd 5790 d93d
00000070: 363f 48bd 9bcd 693b 5217 8b3d 92d6 273e
00000080: b213 86bb 7ca0 8cbd 7b01 8dbd e88b 8e3b
00000090: af86 c1bb 8296 963d 7f38 1d3e 719e f3bc
000000a0: 6995 643b 8624 e6bc 9091 37bd cb2a 19bd
000000b0: fb26 0e3d 2256 003d 1e66 f43d ab79 df3d
000000c0: 90b0 02bd 1e95 8e3c 9f4c fe3a bae3 9a3c
000000d0: bb74 1f3d cd16 96bd b699 03be d80c e33d
000000e0: 6ce7 8ebb 5cae 5cbd 3f95 cabd 0798 393d
000000f0: ed7a aabb 39a8 80bd 7431 1d3c aa44 d4bc
00000100: b94a a23c 7c5c 713d 1df3 02bd 31cb c1bd
00000110: a1ab 2fbd ac7b 74bd 5056 cebd 9dcb dabc
00000120: 68e0 df3d a217 753e 7621 923d 05d2 b83c
00000130: fccb 243d af0f edbc ae11 91bb 06f3 dabc
00000140: 0336 3e3d 4a1a c6ba d069 2cbd 5cff 6abd
00000150: 5d1d c2bd e112 b3bd a4bb 87bc 83fb 18bc
00000160: 99ed 193d f608 6ebd 7f97 3d3c 0055 e03c
00000170: 0e15 c1bd 81a1 50be cb4c 65bc 280b 50bd
00000180: 4cb2 943b 6cbe 95bd ea65 923d d32e 3fbe
00000190: 523c fa3d 57e1 9e3d 0949 ca3d ef8a f3bd
000001a0: 3e85 8d3c 6ea4 14be cf1a 9a3d 76ae abbd
000001b0: 5a44 df3d 088c f43c ebf2 023c 5a90 90bd
000001c0: 68c6 1d3b e515 97bc 0ba5 c63b c627 8bbd
000001d0: 88d5 91bd d9e0 a8ba 4e64 3bbd 52e5 083d
000001e0: 091c 93bd 556e 543d fa56 a23d fe47 52bd
000001f0: 98c7 923d 61f4 dfbc fef4 02bc bafc 87ba
00000200: 66d7 2aba 828d fcbd 1d99 35bd fc17 0cbe
00000210: 7161 883d 3d8b 8d3d 203c c03d 2f81 a63d
00000220: 081f b5bd a43c d2bd 322a b4bd 61a4 02be
00000230: 52c2 30be e2ae 293d f200 54bd d3c4 c43d
00000240: 3bd8 283d 991c 263e 8d54 ec3d 9619 093e
00000250: 0cc0 f4bd c1f5 30bd d422 963d 5472 c73d
00000260: bdc9 92bd 7d6b 3c3e 0932 733d 48b8 013e
00000270: a2b6 533d 94de 1dbc 976e a73c 649c 00bd
00000280: 05d9 cdbc d5f9 19bd 5846 30bc 04d8 da3c
00000290: 34f6 2dbd 970d b23d 1822 a33d fbbf a23c
000002a0: 8bb2 92bd b0db a3bd df00 963d f095 a4bd
000002b0: 7103 c9bd b46c 3dbd 97ca d83d 2f49 d53b
000002c0: dc27 c6bc 8495 80bc 9868 4d3d e2fe 00be
000002d0: 5139 bebd 7e14 a5bd 5672 c13c ad72 b93c
000002e0: 4d26 193c 2f76 00be 72e5 d0bc 569e 99bd
000002f0: c4e4 df3c 32ec 0d3e 8829 82bd 0e63 7d3b
00000300: 54f0 9fbc 4642 afbd 563e 293e dfae 003d
00000310: 4617 ae3d a797 e43d 64c9 40bd a6d9 ec3d
00000320: 000d dcbd 5a9c 69bd 7080 5a3e 6569 e6bc
00000330: 38ab 91bc 148a fb3c 3906 b53d 751d bbbc
00000340: f197 96bc 055a b23d 5bdb a9bd 757d 9e3d
00000350: d362 dd3c 684d ebbc dfca e73c 2d77 d1bd
00000360: e9f2 c13b c5e7 70bd 26f5 05bd 6af2 123e
00000370: 9182 06bd fa65 1abd bf4e 24bd e7f3 92bd
00000380: 8cb8 33bc db84 cabd 1569 ab3d c3fc d5bc
00000390: 1032 00be 8cd7 70bd 913e a9bd 3648 e8bd
000003a0: d1b3 d5bd 6d85 67bc 8a3e efbd 42fa 77be
000003b0: 640f df3c 12a3 2f3d b511 47bd 1018 8fbd
000003c0: 0208 d2ba 26e7 50bd cbfa 4cbd fe04 613d
000003d0: cfe4 47bd ac97 683d ae43 4fbd 3149 3cbd
000003e0: ef6b a0bd 1001 c73b 3443 8abc f1bd 4ebe
000003f0: 663f a4bc d8c9 f13d a201 6abd 3bd3 3dbd

conv_layers.0.bias f4 [32]
0.003538364 0.0039646374 0.0010462446 -0.0018814626 -0.004463818 -0.0008241876 -0.00215147 0.005713958
-0.0025378868 -0.0003306437 0.0016439295 0.0031421175 -0.009688166 -0.00015199726 0.0050393837 -0.0009015826
-0.0015509515 -0.0042492724 -0.0017924935 -0.0012888762 0.0018325638 -0.0013058592 -0.0064362986 0.007102037
-0.0017284667 -0.0032796157 0.00012629702 0.003374674 0.00061200274 -0.00056988373 0.00076439884 -0.001687365
00000000: e6e3 673b cae9 813b 2522 893a 699b f6ba
00000010: 3845 92bb 4b0e 58ba adff 0cbb 273c bb3b
00000020: ad52 26bb 3f5a adb9 1f79 d73a fceb 4d3b
00000030: 1dbb 1ebc 7461 1fb9 6a21 a53b 2f58 6cba
00000040: 4c49 cbba 7b3d 8bbb 1af2 eaba 82ef a8ba
00000050: a332 f03a 5d29 abba 96e7 d2bb 34b8 e83b
00000060: b88d e2ba d2ee 56bb 996e 0439 a229 5d3b
00000070: cf6e 203a 4064 15ba f061 483a 932a ddba

conv_layers.1.weight f4 [32]
1.0017623 0.9955943 0.996643 1.0023111 1.0012065 1.0045081 1.0021894 0.99372965
1.0057287 0.9941802 1.0019094 0.9991002 0.9959025 1.0019739 1.005198 0.9943537
1.0018444 0.9961755 0.99643725 1.0021236 1.0042897 0.9911097 1.0007206 1.0019614
0.9990444 0.9964894 0.99804336 0.9921227 1.0064402 0.9988291 0.99981743 0.9996872
00000000: bf39 803f 45df 7e3f ff23 7f3f bb4b 803f
00000010: 8927 803f b993 803f be47 803f 1165 7e3f
00000020: b8bb 803f 9882 7e3f 913e 803f 08c5 7f3f
00000030: 77f3 7e3f ae40 803f 54aa 803f f78d 7e3f
00000040: 703c 803f 5c05 7f3f 8316 7f3f 9645 803f
00000050: 918c 803f 5eb9 7d3f 9d17 803f 4540 803f
00000060: 60c1 7f3f ee19 7f3f c57f 7f3f c1fb 7d3f
00000070: 08d3 803f 44b3 7f3f 09f4 7f3f 80eb 7f3f

conv_layers.1.bias f4 [32]
2.727306e-05 -0.0014229225 -0.0018840226 -0.009458129 0.0011247188 -0.00074797834 -0.0009788049 0.0022665302
0.0012617026 -1.49203315e-05 0.0020660593 0.0045949514 -0.0014397346 0.0030460076 -0.0064888764 0.0012940281
0.0033884256 0.0010545431 -0.0011637994 -0.01256921 -0.0017607561 -0.011466856 0.003942755 -0.0031664732
-0.0030432607 0.00559394 -0.0028394395 -0.0009739036 -0.0021485533 -0.00084888824 0.0012208073 0.0027211376
00000000: 73c8 e437 5b81 baba 4ff1 f6ba 45f6 1abc
00000010: 4d6b 933a fa13 44ba 3e4b 80ba 118a 143b
00000020: b75f a53a 5652 7ab7 b966 073b 3f91 963b
00000030: 7ab5 bcba 879f 473b a4a0 d4bb 619c a93a
00000040: 5910 5e3b 9838 8a3a a18a 98ba 16ef 4dbc
00000050: 2cc9 e6ba 7bdf 3bbc 3a32 813b 9b84 4fbb
00000060: 7171 47bb 5f4d b73b e415 3abb 904d 7fba
00000070: bece 0cbb ed87 5eba 7f03 a03a 1d55 323b

conv_layers.1.running_mean f4 [32]
0.16834366 -0.16553354 -0.26217693 0.08442388 0.054181084 0.11055558 -0.10115701 -0.14853825
0.2294955 -0.17269868 -0.16826342 -0.07716323 -0.0476693 0.018265164 -0.047850583 -0.21243054
0.19048615 0.17123759 0.04484275 -0.11526954 -0.15698381 0.19217186 0.08099154 -0.013803379
-0.06263645 -0.28633714 -0.24976972 -0.16420878 0.14645113 0.037022576 -0.059604075 -0.29374754
00000000: 4862 2c3e a081 29be 0e3c 86be 6de6 ac3d
00000010: fcec 5d3d f76a e23d 682b cfbd 691a 18be
00000020: de00 6b3e ecd7 30be 3f4d 2cbe c107 9ebd
00000030: e240 43bd d3a0 953c f9fe 43bd 6487 59be
00000040: cd0e 433e e858 2f3e 08ad 373d 7012 ecbd
00000050: 5dc0 20be b3c8 443e e4de a53d 9127 62bc
00000060: 8a47 80bd c89a 92be a2c3 7fbe 5926 28be
00000070: 49f7 153e fca4 173d 6723 74bd 1466 96be

conv_layers.1.running_var f4 [32]
18.887587 9.060466 16.46412 4.08643 5.898575 6.330825 5.3396773 6.190689
14.426695 6.282871 7.3005157 7.8537025 3.0017471 4.8058615 4.162825 23.29089
10.983316 9.800803 1.6551728 5.854772 5.575575 9.768308 11.967262 4.4685388
7.234826 16.136194 17.519466 12.170521 10.570026 5.0515537 18.08938 22.546375
00000000: c719 9741 abf7 1041 85b6 8341 09c4 8240
00000010: 20c1 bc40 1e96 ca40 a3de aa40 201a c640
00000020: bed3 6641 470d c940 d39d e940 8851 fb40
00000030: a01c 4040 9ec9 9940 dd35 8540 be53 ba41
00000040: aabb 2f41 17d0 1c41 b4dc d33f 4b5a bb40
00000050: 1c6b b240 fd4a 1c41 e879 3f41 45fe 8e40
00000060: b283 e740 ed16 8141 de27 8c41 74ba 4241
00000070: d41e 2941 54a6 a140 0db7 9041 fa5e b441

conv_layers.3.weight f4 [32, 32, 3, 3]
-0.054821316 0.14094082 -0.059874833 0.07945392 -0.13912158 0.02930742 -0.17887229 0.18467301
-0.04932783 0.08414861 0.04875821 -0.050092738 0.08837062 0.12151525 0.039280538 0.015028956
0.01456255 0.017597126 0.06252554 -0.01843808 0.10918269 0.17070514 0.012011309 -0.05719119
0.011743538 -0.031542126 -0.037574165 0.07079194 -0.019925669 0.10242747 -0.017119838 0.021779653
0.003705745 -0.11138747 -0.16545965 -0.20095578 0.015714612 0.055082206 -0.03742307 -0.055136807
-0.009937685 -0.06834784 -0.10933833 -0.039146036 0.115273565 0.082968995 0.107918136 -0.044087574
0.045779794 0.033231568 0.014476021 0.14025664 0.014264221 0.001980723 0.13721561 -0.06048935
0.07859021 0.117276005 -0.021956794 -0.073702544 -0.0013347054 0.005697582 0.08362522 0.16653986
-0.17268552 -0.027222203 -0.11660559 0.06668261 -0.12106527 0.09165877 0.0031339794 -0.088110186
0.07914153 0.086833075 -0.09450316 -0.0801843 0.003181751 0.006043403 -0.029324876 0.17382789
-0.01487623 -0.0320719 0.062026486 -0.12997583 0.10381171 -0.06378599 0.0028487148 0.060111046
0.10830851 -0.1141898 -0.06350411 0.17835842 -0.017996965 0.0014633769 0.08232533 -0.076782994
-0.058824245 -0.081871524 0.032799013 0.0044020996 -0.021204917 0.13158986 -0.10309871 0.16839717
0.14005348 -0.051470455 -0.043230224 -0.101750374 0.024765333 0.19078672 -0.014281827 0.0698034
0.0017963129 -0.067522064 -0.03498769 -0.05706434 -0.10262729 -0.012891551 0.07613116 0.0037860707
-0.0042418377 -0.034435667 -0.008278908 0.045974772 -0.07535663 -0.004153427 -0.019356692 0.04539819
0.14239797 0.051027685 -3.8903e-05 0.02186031 -0.08015993 0.013097905 -0.056610912 -0.20245537
-0.0739369 -0.06729476 -0.050813816 0.080904424 -0.029759672 0.11157836 -0.030341525 -0.08348478
-0.07368979 0.03717539 -0.09310254 0.015549288 0.049574498 -0.020525731 -0.14738546 0.012079901
-0.025941676 -0.15401003 0.006718527 0.097828925 0.04815189 0.055170644 0.15149185 -0.025443997
-0.07491476 0.13371691 0.028578604 -0.034952383 -0.0026721612 0.0038715666 0.11406891 -0.08458967
0.005518137 -0.024094094 0.064997695 -0.03911846 -0.04936937 -0.024526447 -0.06710966 0.020137012
0.031437118 0.032103196 0.14536765 0.12147324 -0.037686992 -0.05140549 0.002044129 -0.0045577204
-0.024799831 0.04320052 0.0141079 0.047493912 0.20459528 -0.08263277 -0.010302746 0.014095532
-0.010268084 0.004616528 -0.11579864 0.048371475 -0.04225707 -0.036155548 0.02973817 0.059176546
-0.10363773 0.07526027 -0.029456552 -0.11060702 -0.0047477675 0.1284786 0.09955563 -0.035632458
-0.023186674 -0.16424027 0.04197113 0.03582938 0.015500768 -0.16481744 -0.05906317 0.010010872
0.013257629 -0.26338336 0.056401566 -0.08683405 -0.039235596 -0.091318354 0.058371767 -0.08832586
-0.16213103 0.15414552 0.028710311 -0.09667506 0.17093596 -0.02793525 -0.27273142 -0.0020928506
0.09715318 0.030619448 -0.051221624 0.022244837 -0.06594149 0.08451215 -0.1729644 -0.020043876
0.22423325 -0.08059471 0.032781072 0.19705977 -0.00025469178 -0.03116589 0.04127761 0.091995284
-0.02114633 0.07576256 -0.03124488 -0.03585588 -0.04709764 0.06956365 -0.07157647 0.05138992
00000000: 518c 60bd ca52 103e 503f 75bd bdb8 a23d
00000010: e375 0ebe 1d16 f03c 4c2a 37be ec1a 3d3e
00000020: fb0b 4abd 1b56 ac3d b0b6 473d 0b2e 4dbd
00000030: a8fb b43d fddc f83d a1e4 203d 033c 763c
00000040: c397 6e3c d927 903c 640d 803d 750b 97bc
00000050: 2d9b df3d 54cd 2e3e 15cb 443c 4f41 6abd
00000060: f867 403c 5132 01bd 5ee7 19bd 5dfb 903d
00000070: 283b a3bc 7ec5 d13d e73e 8cbc 3e6b b23c
00000080: 16dc 723b 1d1f e4bd 416e 29be 5ac7 4dbe
00000090: eebb 803c e19d 613d ef48 19bd 22d7 61bd
000000a0: acd1 22bc f4f9 8bbd c6ec dfbd 9857 20bd
000000b0: 8c14 ec3d a6eb a93d 2f04 dd3d 2c95 34bd
000000c0: 9883 3b3d d31d 083d d52c 6d3c 709f 0f3e
000000d0: 7bb4 693c 05cf 013b 4082 0c3e aec3 77bd
000000e0: e7f3 a03d 672e f03d bcde b3bc 5cf1 96bd
000000f0: 48f1 aeba c8b2 ba3b b343 ab3d 6d89 2a3e
00000100: 79d4 30be 1901 dfbc e9ce eebd e490 883d
00000110: 11f1 f7bd 98b7 bb3d 7363 4d3b 1d73 b4bd
00000120: f414 a23d 8ad5 b13d df8a c1bd ab37 a4bd
00000130: ec84 503b bd07 c63b b93a f0bc f0ff 313e
00000140: 6ebb 73bc d35d 03bd 7c0f 7e3d 6218 05be
00000150: 3c9b d43d 3ba2 82bd 81b1 3a3b 0037 763d
00000160: dad0 dd3d 58dc e9bd 710e 82bd 97a3 363e
00000170: 5f6e 93bc c8ce bf3a 2f9a a83d 6740 9dbd
00000180: b1f1 70bd 42ac a7bd 4258 063d 7d3f 903b
00000190: efb5 adbc 7ebf 063e 6b25 d3bd 4f70 2c3e
000001a0: 2e6a 0f3e afd2 52bd 2d12 31bd 8062 d0bd
000001b0: abe0 ca3c 985d 433e 53fe 69bc 16f5 8e3d
000001c0: 4272 eb3a 0249 8abd 414f 0fbd 4cbc 69bd
000001d0: 422e d2bd 1537 53bc a7ea 9b3d ba1f 783b
000001e0: 1dff 8abb 6a0c 0dbd 42a4 07bc 0b50 3c3d
000001f0: 9454 9abd 7919 88bb ed91 9ebc 74f3 393d
00000200: c6d0 113e 6802 513d c72b 23b8 6514 b33c
00000210: e42a a4bd 9898 563c d8e0 67bd 7650 4fbe
00000220: 3b6c 97bd d6d1 89bd 2622 50bd 38b1 a53d
00000230: 8eca f3bc 3283 e43d ca8e f8bc 11fa aabd
00000240: acea 96bd 3945 183d 8bac bebd 71c2 7e3c
00000250: a10e 4b3d 9425 a8bc 37ec 16be c7ea 453c
00000260: a383 d4bc ceb4 1dbe 1727 dc3b 885a c83d
00000270: eb3a 453d 9dfa 613d ae20 1b3e ee6f d0bc
00000280: e96c 99bd 16ed 083e ad1d ea3c 3b2a 0fbd
00000290: 6d1f 2fbb 1cba 7d3b f69c e93d 593d adbd
000002a0: 7dd1 b43b fa60 c5bc 831d 853d ae3a 20bd
000002b0: 8937 4abd b0eb c8bc ca70 89bd 60f6 a43c
000002c0: 35c4 003d a47e 033d 42db 143e f6c6 f83d
000002d0: ad5d 1abd 908e 52bd cbf6 053b ee58 95bb
000002e0: 0429 cbbc 07f3 303d d224 673c fa88 423d
000002f0: 6d81 513e 5f3b a9bd d9cc 28bc f2f0 663c
00000300: 773b 28bc 3e46 973b d627 edbd 2b21 463d
00000310: c015 2dbd d717 14bd 769d f33c 1b63 723d
00000320: 0540 d4bd 0e22 9a3d de4e f1bc ef85 e2bd
00000330: 2993 9bbb e58f 033e d2e3 cb3d 57f3 11bd
00000340: fbf1 bdbc 9a2e 28be ebe9 2b3d d4c1 123d
00000350: eff6 7d3c e7c5 28be 39ec 71bd a404 243c
00000360: 8736 593c 2fda 86be 5405 673d 0dd6 b1bd
00000370: 81b5 20bd 1e05 bbbd 3c17 6f3d 30e4 b4bd
00000380: ad05 26be 53d8 1d3e e331 eb3c 93fd c5bd
00000390: d609 2f3e 77d8 e4bc 74a3 8bbe 3528 09bb
000003a0: 3ff8 c63d a3d5 fa3c c4cd 51bd ce3a b63c
000003b0: 550c 87bd b514 ad3d 941d 31be 0e33 a4bc
000003c0: 679d 653e d70e a5bd 7245 063d 09ca 493e
000003d0: 2788 85b9 9c4f ffbc b612 293d 0668 bc3d
000003e0: 113b adbc 6729 9b3d 43f5 ffbc 9ddd 12bd
000003f0: 74e9 40bd 6377 8e3d af96 92bd 3d7e 523d

conv_layers.3.bias f4 [32]
-3.7746333e-05 0.00011178037 0.0014985746 0.0020923244 -0.0010423283 0.0016095077 -0.00094555586 -0.0009345549
0.00047370556 -1.916664e-05 -0.003938865 0.0013876926 -0.0001336651 0.0027344835 -0.00028082242 0.0026671647
-0.0029524255 0.0023153797 0.003140075 -0.0016035539 -0.00018717245 -0.0004033669 -0.0024754123 -0.0019590931
-0.0022158073 0.0022253047 -0.005238903 0.0045733857 -0.0042232713 0.0034227585 0.0041848444 -0.0006495112
00000000: d151 1eb8 a16b ea38 d26b c43a 611f 093b
00000010: bc9e 88ba 1ef6 d23a 2edf 77ba ebfc 74ba
00000020: af5b f839 0cc8 a0b7 9811 81bb 3de3 b53a
00000030: 7428 0cb9 0535 333b 593b 93b9 99cb 2e3b
00000040: 7b7d 41bb a0bd 173b b7c9 4d3b 572e d2ba
00000050: b943 44b9 fd7a d3b9 873a 22bb 2164 00bb
00000060: 1437 11bb 6bd6 113b 1bab abbb 57dc 953b
00000070: 5e63 8abb 5c50 603b 0521 893b f543 2aba

conv_layers.4.weight f4 [32]
1.0019857 1.0032532 1.006298 0.9920236 0.9967921 0.99822885 1.000487 1.0059792
1.0060393 1.007574 0.9959098 1.0036827 1.0045613 0.9966008 1.0018592 0.9914271
1.001326 1.0002306 1.0026095 1.0051764 0.9971522 0.9970042 1.0013925 1.0009385
0.9923312 0.9993203 0.9925595 1.0028851 0.9984897 1.0004561 0.99541 0.99850994
00000000: 1141 803f 9a6a 803f 5fce 803f 42f5 7d3f
00000010: c42d 7f3f ed8b 7f3f f50f 803f edc3 803f
00000020: e5c5 803f 2ff8 803f f2f3 7e3f ad78 803f
00000030: 7795 803f 3b21 7f3f ec3c 803f 2bce 7d3f
00000040: 732b 803f 8e07 803f 8255 803f 9fa9 803f
00000050: 5e45 7f3f ab3b 7f3f a12d 803f c11e 803f
00000060: 6b09 7e3f 75d3 7f3f 6118 7e3f 8a5e 803f
00000070: 059d 7f3f f20e 803f 31d3 7e3f 599e 7f3f

conv_layers.4.bias f4 [32]
0.0005022259 0.0002072835 0.0013825658 0.004359288 -0.005275852 0.0031857297 0.0063835876 -0.0063567124
0.0022632251 0.0030983933 -0.0064536175 -0.0020368835 0.00033348578 -0.0009012521 -0.0007864573 0.0049227267
5.2553456e-05 -0.012216044 0.00054955826 -0.003180326 -0.0007442245 -0.0013789438 -0.005585874 0.0015485743
0.00041325504 0.0034251628 -0.0060503185 -0.0031070036 -0.003758827 -0.0039464836 0.0019314508 -0.0048838966
00000000: cfa7 033a 3e5a 5939 3637 b53a 5cd8 8e3b
00000010: 0ee1 acbb adc7 503b 6a2d d13b f84b d0bb
00000020: 9e52 143b 6a0e 4b3b de78 d3bb 3c7d 05bb
00000030: b4d7 ae39 0142 6cba 422a 4eba d34e a13b
00000040: d86c 5c38 cd25 48bc 3b10 103a 046d 50bb
00000050: 1018 43ba adbd b4ba b509 b7bb 88f9 ca3a
00000060: 27aa d839 b278 603b c041 c6bb df9e 4bbb
00000070: a756 76bb 8151 81bb bc28 fd3a 1809 a0bb

conv_layers.4.running_mean f4 [32]
0.012643446 -0.021813497 0.10811793 -0.10905934 -0.15128517 0.09140192 0.09614702 0.032387976
0.0002351572 0.05683575 0.09873269 0.065537564 0.08928883 -0.13668078 0.006992527 -0.02553107
0.0387073 0.08497791 0.14742373 0.04204212 0.052068174 -0.054463424 0.0250899 0.018908568
0.022486325 -0.023538154 -0.06783476 0.070963904 0.036121294 -0.0012955661 0.037883975 0.031337894
00000000: 7526 4f3c 38b2 b2bc ef6c dd3d 815a dfbd
00000010: 80ea 1abe ee30 bb3d bbe8 c43d 41a9 043d
00000020: 8894 7639 9acc 683d 5d34 ca3d 8f38 863d
00000030: 10dd b63d 0cf6 0bbe 9121 e53b 8926 d1bc
00000040: 8c8b 1e3d e608 ae3d 3ff6 163e 5c34 2c3d
00000050: 7045 553d 0a15 5fbd 5589 cd3c 24e6 9a3c
00000060: 3e35 b83c 16d3 c0bc f3ec 8abd 8655 913d
00000070: ecf3 133d fccf a9ba 3a2c 1b3d 2a5c 003d

conv_layers.4.running_var f4 [32]
0.9236294 1.2172279 0.6759254 0.6549301 1.5520291 1.2046288 0.6635773 0.71642524
0.90435153 0.7865724 0.75304115 1.1674609 0.6541275 0.76762956 0.5154303 1.3407978
1.3225337 0.4863269 0.46627063 0.5527091 0.84574324 1.0048057 0.6572622 0.84421
0.8037609 0.53383374 0.77366656 0.64188284 0.85295004 1.0774018 0.7923464 0.7802357
00000000: fa72 6c3f 20ce 9b3f 7209 2d3f 80a9 273f
00000010: e4a8 c63f 4731 9a3f 34e0 293f a567 373f
00000020: 9583 673f cf5c 493f 4ec7 403f 5c6f 953f
00000030: e674 273f 5f83 443f 3df3 033f 439f ab3f
00000040: c948 a93f d7ff f83e 06bb ee3e 587e 0d3f
00000050: a182 583f 799d 803f 5642 283f 261e 583f
00000060: 46c3 4d3f 54a9 083f 030f 463f 6f52 243f
00000070: ef5a 5a3f 4de8 893f 37d7 4a3f 87bd 473f

conv_layers.6.weight f4 [32, 32, 3, 3]
0.12198252 -0.009297056 -0.043224383 -0.0201334 0.04649705 -0.16885734 -0.07911503 -0.09656203
0.13816482 -0.027447572 -0.0033962803 0.050804432 0.10534234 0.016025087 0.01588299 -0.26394913
0.033683702 -0.12252251 0.01432177 0.06231313 0.087519124 0.018990207 -0.014592611 0.04588134
-0.010929711 -0.32732242 0.03762875 0.0547888 0.15568365 -0.10554928 -0.02993218 0.17298603
0.12301485 -0.05186832 -0.06284111 -0.029924385 -0.0646671 0.10616565 0.11306537 0.046729725
-0.10562561 -0.084622204 0.11498437 0.023173315 0.18185693 0.120884426 0.07892629 0.0031328758
0.08322589 -0.16190869 0.055245534 -0.035571694 0.014936144 -0.150624 -0.09302949 -0.024580715
0.0136552295 -0.14495137 -0.03210698 0.10657632 0.04181243 0.07435975 -0.027331188 -0.100583516
-0.039538853 -0.016498845 0.040768396 0.054052692 0.030042363 0.07539102 -0.03765664 0.0012964667
-0.031522222 -0.014032413 0.022206262 -0.084193 -0.06623926 -0.11083071 -0.1440945 0.07235261
-0.088042155 -0.11294651 -0.00080810086 0.008289064 -0.104835905 -0.16482042 -0.01948578 0.012631034
0.037459824 0.11130533 0.16715403 -0.074857 -0.04882099 0.021939682 0.06306565 0.061149318
-0.09164785 0.054513678 -0.18753543 0.035630744 0.15921983 -0.074488916 -0.015082714 -0.033847876
-0.08594319 0.09302903 -0.099912435 0.0325718 -0.0005848427 0.11349288 -0.012650881 0.084258296
0.06454851 0.075393274 0.04117381 -0.00949836 -0.099642895 -0.063909955 -0.00950309 0.030054603
-0.13767052 0.022793723 -0.08705502 0.16717184 -0.12005523 0.18329048 -0.0008902702 0.03515717
0.121206634 0.02496133 0.22670497 0.07355058 0.039279755 0.23849191 -0.062957786 0.05893876
-0.0072008832 0.11156925 -0.07616799 0.034172717 0.089888126 -0.110086046 -0.014663421 -0.02440721
0.07056072 0.15274246 -0.04074698 0.060909145 0.06621751 0.06035129 -0.017654113 0.001142205
-0.08037048 0.099014916 -0.0062488304 -0.1298772 -0.072067276 0.023283467 0.08494803 -0.051134653
0.016529933 -0.016367167 -0.0032990284 0.050033998 0.10944169 -0.003972767 -0.02830742 -0.057957463
-0.02602948 -0.16075334 -0.036253765 -0.11083692 0.01277107 0.05576359 0.054411925 0.041759077
0.0314755 0.03221537 0.032587104 -0.011303658 0.039335515 0.00011706207 -0.042324703 0.012646819
-0.0031284941 0.103321366 0.0546837 -0.07674627 0.04430913 -0.099486284 0.07782539 -0.055085972
-0.021323446 0.04868181 -0.03783128 0.059725914 -0.06422865 -0.019439625 -0.11064595 -0.045388777
-0.08096308 0.1407022 0.1210109 -0.14304389 -0.044848427 0.11420489 -0.23261158 0.07956706
0.0426668 0.010190142 -0.11913136 -0.12820789 0.02122536 0.05358968 -0.14365278 0.06222062
-0.06050699 0.08091345 0.1788416 0.019549241 -0.0471585 -0.13504365 -0.11373109 -0.062489957
-0.10183928 0.101889975 0.0074982555 0.0088734245 -0.10528595 0.087672874 -0.2014001 0.12682465
0.06760924 -0.11949683 -0.08004208 0.0031866927 -0.14746268 -0.085811414 -0.000822856 -0.09942493
0.15038809 0.09109432 -0.20583972 -0.040945373 0.038343277 -0.17129153 0.07120576 -0.08457655
-0.04707921 0.06854275 -0.09241362 0.012548679 0.051798496 -0.09499648 0.053888403 -0.08216369
00000000: f9d1 f93d ae52 18bc 0d0c 31bd cdee a4bc
00000010: b173 3e3d f0e8 2cbe 1007 a2bd 50c2 c5bd
00000020: 147b 0d3e bbd9 e0bc 2194 5ebb 4f18 503d
00000030: babd d73d 0b47 833c 0b1d 823c 5724 87be
00000040: ecf7 093d 15ed fabd dba5 6a3c 0d3c 7f3d
00000050: 3a3d b33d 5a91 9b3c d915 6fbc 12ee 3b3d
00000060: 8812 33bc ce96 a7be 9b20 1a3d 396a 603d
00000070: 896b 1f3e 392a d8bd 5534 f5bc 4023 313e
00000080: 36ef fb3d e073 54bd d7b2 80bd fc23 f5bc
00000090: 2f70 84bd 606d d93d d18e e73d ab67 3f3d
000000a0: 3d52 d8bd 684e adbd ed7c eb3d f7d5 bd3c
000000b0: b438 3a3e 4192 f73d 1ba4 a13d ef50 4d3b
000000c0: 5672 aa3d 64cb 25be 2449 623d a0b3 11bd
000000d0: bbb6 743c 2e3d 1abe 3f86 bebd 7f5d c9bc
000000e0: 2fba 5f3c 226e 14be 9c82 03bd b044 da3d
000000f0: 8343 2b3d ed49 983d a8e5 dfbc bbfe cdbd
00000100: 7ef3 21bd 9628 87bc c3fc 263d 5b66 5d3d
00000110: 671b f63c 9b66 9a3d d93d 1abd 34ee a93a
00000120: 721d 01bd 35e8 65bc e8e9 b53c 616d acbd
00000130: 73a8 87bd 36fb e2bd 828d 13be 9b2d 943d
00000140: 724f b4bd 8050 e7bd bbd6 53ba dbce 073c
00000150: 35b4 d6bd afc6 28be a4a0 9fbc 65f2 4e3c
00000160: 796f 193d 0df4 e33d 6d2a 2b3e a04e 99bd
00000170: 85f8 47bd d9ba b33c 9028 813d b577 7a3d
00000180: deb1 bbbd bc49 5f3d 4a09 40be 8bf1 113d
00000190: 860a 233e a58d 98bd 7d1d 77bc 12a4 0abd
000001a0: fc02 b0bd 0186 be3d e49e ccbd 026a 053d
000001b0: 2150 19ba f46e e83d a445 4fbc 9d8f ac3d
000001c0: 0232 843d ca67 9a3d dea5 283d 029f 1bbc
000001d0: 9311 ccbd 39e3 82bd d9b2 1bbc 1235 f63c
000001e0: 80f9 0cbe e7b9 ba3c e749 b2bd 182f 2b3e
000001f0: 84df f5bd 80b0 3b3e 0661 69ba f700 103d
00000200: 2f3b f83d b47b cc3c 5925 683e b0a1 963d
00000210: cfe3 203d 3937 743e 03f0 80bd c569 713d
00000220: 63f5 ebbb 6b7e e43d f7fd 9bbd b1f8 0b3d
00000230: 4417 b83d cb74 e1bd d83e 70bc a1f1 c7bc
00000240: 2482 903d 8568 1c3e 4ee6 26bd de7b 793d
00000250: 0c9d 873d ea32 773d 5c9f 90bc 0ab6 953a
00000260: 4799 a4bd 55c8 ca3d fdc2 ccbb 87fe 04be
00000270: 0298 93bd f8bc be3c 3cf9 ad3d 9272 51bd
00000280: c869 873c 7014 86bc 8334 58bb 73f0 4c3d
00000290: f722 e03d fc2d 82bb f6e4 e7bc ce64 6dbd
000002a0: c73b d5bc 869c 24be d47e 14bd 78fe e2bd
000002b0: c03d 513c 5d68 643d 0adf 5e3d 910b 2b3d
000002c0: 74ec 003d 44f4 033d 0e7a 053d fa32 39bc
000002d0: 471e 213d 387f f538 ab5c 2dbd 9b34 4f3c
000002e0: 6c07 4dbb 279a d33d 04fc 5f3d 262d 9dbd
000002f0: 7e7d 353d 77bf cbbd eb62 9f3d d4a1 61bd
00000300: 82ae aebc 9466 473d f9f4 1abd 29a3 743d
00000310: 4f8a 83bd d93f 9fbc 589a e2bd 95e9 39bd
00000320: f9cf a5bd 3d14 103e 90d4 f73d 197a 12be
00000330: fcb2 37bd 41e4 e93d bb31 6ebe 0ef4 a23d
00000340: 62c3 2e3d 8ef4 263c 24fb f3bd ee48 03be
00000350: cee0 ad3c da80 5b3d b719 13be 0ddb 7e3d
00000360: 2dd6 77bd f3b5 a53d 4122 373e bb25 a03c
00000370: 4529 41bd e248 0abe d9eb e8bd 78f5 7fbd
00000380: 1d91 d0bd b1ab d03d edb3 f53b d761 113c
00000390: 29a0 d7bd d68d b33d d43b 4ebe 52de 013e
000003a0: b776 8a3d c1ba f4bd 1aed a3bd d5d7 503b
000003b0: 7500 17be e5bd afbd eeb4 57ba 4c9f cbbd
000003c0: 56ff 193e a98f ba3d a6c7 52be 56b6 27bd
000003d0: d70d 1d3d 0c67 2fbe 53d4 913d 7836 adbd
000003e0: 21d6 40bd 2460 8c3d 5a43 bdbd f998 4d3c
000003f0: a92a 543d 848d c2bd 16ba 5c3d 7045 a8bd

conv_layers.6.bias f4 [32]
0.0043974062 0.007793824 -0.0038880517 0.01284173 0.00081311824 -0.0002230437 0.003502655 0.0057480456
-0.00086003967 -0.0046349405 7.680079e-05 0.005499106 0.0041177296 0.004837588 0.005090722 -0.0032101537
0.0016446083 0.008232424 0.0038952974 0.0041402164 0.0054101176 -0.007845661 0.002635032 0.0020617011
0.004046747 0.009171756 -7.036426e-05 -0.004482168 0.0041677305 0.0014996694 -0.0011482828 -0.0029096648
00000000: 1e18 903b 5663 ff3b afce 7ebb 1f66 523c
00000010: 7127 553a d6e0 69b9 cd8c 653b 1a5a bc3b
00000020: 4974 61ba b3e0 97bb 1c10 a138 d831 b43b
00000030: 05ee 863b a184 9e3b 12d0 a63b 7161 52bb
00000040: e68f d73a 4ae1 063c 3f48 7f3b a7aa 873b
00000050: 5b47 b13b 168b 00bc 80b0 2c3b 9b1d 073b
00000060: 939a 843b 2245 163c 8690 93b8 26df 92bb
00000070: 7591 883b 8e90 c43a fa81 96ba 13b0 3ebb

conv_layers.7.weight f4 [32]
1.0005157 1.0013748 1.0049696 0.9942941 1.0003481 1.0002896 0.9964623 0.9993711
0.9985028 0.991742 0.9988831 0.9989062 1.0056 0.98843473 1.0060824 0.9971366
1.0018628 1.0064379 1.0006539 0.9987734 0.99759334 0.99619013 1.006655 1.0013746
1.0043584 0.9992278 0.998158 0.9970821 1.008371 1.0014149 1.0012285 1.0051931
00000000: e610 803f 0d2d 803f d8a2 803f 0f8a 7e3f
00000010: 680b 803f 7d09 803f 2718 7f3f c9d6 7f3f
00000020: e19d 7f3f cee2 7d3f ceb6 7f3f 51b8 7f3f
00000030: 80b7 803f 0f0a 7d3f 4fc7 803f 5844 7f3f
00000040: 0a3d 803f f5d2 803f 6d15 803f 9daf 7f3f
00000050: 4762 7f3f 5106 7f3f 12da 803f 0b2d 803f
00000060: d18e 803f 65cd 7f3f 4887 7f3f c640 7f3f
00000070: 4d12 813f 5d2e 803f 4128 803f 2baa 803f

conv_layers.7.bias f4 [32]
0.0048927655 0.006138788 0.002119211 -0.009044449 -0.003173316 0.0005213221 0.0030563972 0.008138634
-0.0019207787 -0.0047953795 0.0023775215 0.0013482946 -0.0023207052 -0.0077072894 0.0063415663 0.0001156525
0.0003437203 0.0038079838 -0.0028975636 -0.005797225 -0.007591546 -0.002816412 0.0001886564 0.00012850174
-0.004331513 0.0013741285 -0.005503671 -0.0068716244 0.00337864 0.0079989 -0.0052630096 0.012095807
00000000: 7e53 a03b e327 c93b 76e2 0a3b 2b2f 14bc
00000010: 68f7 4fbb 55a9 083a d64d 483b e857 053c
00000020: a3c2 fbba 8f22 9dbb 31d0 1b3b 42b9 b03a
00000030: f916 18bb 6e8d fcbb eacc cf3b 778a f238
00000040: 5c35 b439 5e8f 793b 0de5 3dbb a6f6 bdbb
00000050: 81c2 f8bb 8d93 38bb 11d2 4539 6cbe 0639
00000060: 5def 8dbb 1a1c b43a 2358 b4bb 5d2b e1bb
00000070: 2c6c 5d3b d10d 033c 5375 acbb 7e2d 463c

conv_layers.7.running_mean f4 [32]
-0.06835914 -0.106789 0.016242815 0.043248773 0.090020984 -0.23769872 -0.031272102 0.0835408
-0.04406615 0.1662336 -0.28690848 0.024242269 0.058581103 0.041224692 0.045194484 -0.09153177
-0.05027216 -0.12949353 -0.045330383 -0.22435027 0.07633325 -0.049453158 0.043215204 0.02039434
-0.039377894 -0.08620767 0.10269104 -0.0764988 0.039459582 -0.02283936 -0.1386338 0.15337366
00000000: e0ff 8bbd 31b4 dabd a70f 853c a025 313d
00000010: ec5c b83d 4b67 73be 2d17 00bd 7017 ab3d
00000020: b57e 34bd 2439 2a3e abe5 92be b997 c63c
00000030: bdf2 6f3d 39db 283d da1d 393d 0275 bbbd
00000040: 2eea 4dbd f499 04be 5aac 39bd 14bc 65be
00000050: 9b54 9c3d 658f 4abd 6d02 313d 0812 a73c
00000060: b74a 21bd a68d b0bd ae4f d23d 67ab 9cbd
00000070: 5fa0 213d 9c19 bbbc 05f6 0dbe fc0d 1d3e

conv_layers.7.running_var f4 [32]
1.2601203 0.8176971 1.0140698 0.44589162 1.0418997 1.0096717 1.16226 0.98202515
0.5223962 1.440865 1.0516703 0.75307375 0.85206646 0.70675313 0.7588682 1.15181
1.3778116 0.87148446 0.55981016 1.204945 0.63827527 0.5929306 0.9098131 0.38826284
0.6333393 0.6519844 0.79675084 0.53945774 1.6567353 0.82920676 0.9298465 1.8981912
00000000: 9f4b a13f 9954 513f 0acd 813f e84b e43e
00000010: f85c 853f ec3c 813f f0c4 943f 0066 7b3f
00000020: c2bb 053f 446e b83f 229d 863f 71c9 403f
00000030: 0721 5a3f c6ed 343f 3045 423f 836e 933f
00000040: 215c b03f 9b19 5f3f b84f 0f3f a33b 9a3f
00000050: 0266 233f 4dca 173f 83e9 683f 63ca c63e
00000060: 8622 223f 73e8 263f ddf7 4b3f e719 0a3f
00000070: e70f d43f e546 543f 6c0a 6e3f eef7 f23f

conv_layers.9.weight f4 [32, 32, 3, 3]
0.008967795 -0.0004950816 -0.10598951 -0.0055638426 0.12773982 0.015206508 -0.021519512 -0.13074383
0.23404865 -0.048738886 0.11215078 -0.1256324 -0.19484045 -0.01681376 -0.05121306 -0.058785796
0.0778829 -0.020471409 -0.0913183 -0.026249245 -0.092442885 -0.13729423 0.104394734 0.057701882
-0.016482014 -0.06831948 -0.05265642 0.09611431 -0.07473488 0.10808553 0.05064263 -0.016644912
0.055860303 -0.039662644 -0.03583519 0.016817208 -0.05770097 -0.02203673 -0.059735402 0.0562894
0.021606848 0.21752363 0.09548365 0.07244114 -0.19399619 0.026979128 0.0454718 -0.08046838
-0.03075771 -0.041542165 -0.0037231217 -0.00672334 0.0047946377 -0.074367024 -0.059677895 0.076221526
-0.11794739 0.023807755 0.018119598 0.007903988 -0.079338916 0.0746056 -0.014882909 -0.03797526
-0.004868624 0.054243427 0.14641272 -0.1640635 0.09872489 0.04268741 -0.064926416 -0.07816026
0.038830817 0.01608339 0.0655383 -0.10641231 0.007291587 -0.06326534 -0.12805504 -0.02626367
0.0244947 0.06297813 0.057448864 0.11782568 0.06463746 0.02775401 0.112702794 0.00012901066
0.00083676726 -0.04277081 0.1424057 0.15158726 -0.055291645 -0.11439856 0.024652561 -0.08039752
0.036795396 0.03238796 0.0796858 -0.13775054 -0.06951169 0.040948622 -0.002998651 0.050096452
-0.12520002 0.054373495 -0.010224909 -0.028429994 -0.12016103 0.03451953 -0.0022089235 -0.21654473
-0.15643673 0.022300629 0.01853447 0.076486185 -0.090507664 0.013011536 0.01753716 -0.05191514
-0.021214996 0.0050265826 0.060985517 0.09280429 -0.074332885 0.01547861 -0.1267792 -0.06398596
0.05098636 0.031042568 0.07334035 0.023433834 -0.08886527 0.051342636 -0.073757276 0.018411117
-0.025655668 -0.012003727 0.015910499 0.00806393 -0.041182894 -0.1098587 0.07475189 0.017215252
0.09747076 0.042854786 0.042888697 0.16333686 -0.15954341 -0.07300776 -0.005401261 0.020792136
0.019339219 0.12831178 0.16115534 -0.045476325 -0.07395915 0.05582723 0.07435277 0.00805365
-0.040053062 -0.12706321 0.123475924 0.045316685 -0.08103958 0.15642713 0.063046224 0.13320109
-0.051348686 0.098820135 0.09001641 0.024541277 0.0079389 -0.0011322484 0.095572986 0.020408962
-0.09707908 0.055297922 0.014516801 -0.037228867 0.04743026 -0.09049669 0.054928772 0.16004318
-0.15716141 0.12952566 0.017473467 -0.057386752 0.0906932 0.0010104786 0.039877933 0.014956758
0.12114385 0.11397109 -0.08502807 -0.024690764 0.000250761 0.06791337 -0.05907971 -0.005687084
0.108420335 -0.010001592 0.043176547 -0.11448493 0.048306234 0.06055583 -0.018756578 0.06586811
-0.0071712653 0.03874407 0.02992596 -0.06921374 0.0947032 -0.06697455 -0.029841203 -0.14132649
0.06131249 -0.06825722 -0.033758055 0.094628505 -0.07036541 -0.08822972 0.026665714 0.01148734
-0.05351042 -0.086569324 0.046639178 -0.2578682 0.12921865 0.013492477 0.017112775 0.02602202
0.040119473 -0.0711078 -0.041078866 0.0974517 0.028744724 0.05625625 -0.10076773 0.029430047
-0.16301276 -0.013115691 -0.09091695 0.059727374 -0.018586589 0.081681825 -0.1750338 0.09664345
-0.12760311 0.07928131 0.15920143 0.05970869 0.11113025 0.13610448 -0.015063599 0.03177426
00000000: a9ed 123c 5dc8 01ba 0711 d9bd e550 b6bb
00000010: 3ace 023e b824 793c b049 b0bc b6e1 05be
00000020: 73aa 6f3e 6da2 47bd 4faf e53d c8a5 00be
00000030: 4184 47be 03bd 89bc c9c4 51bd 60c9 70bd
00000040: 1281 9f3d a8b3 a7bc 1705 bbbd a808 d7bc
00000050: b252 bdbd dc96 0cbe e8cc d53d cf58 6c3d
00000060: 4a05 87bc 15eb 8bbd 42ae 57bd 94d7 c43d
00000070: 9a0e 99bd f25b dd3d a56e 4f3d e95a 88bc
00000080: c6cd 643d 4c75 22bd ecc7 12bd 3ec4 893c
00000090: da57 6cbd 5f86 b4bc 1cad 74bd b78f 663d
000000a0: d800 b13c 84be 5e3e ef8c c33d 055c 943d
000000b0: f0a6 46be 5503 dd3c a340 3a3d 9bcc a4bd
000000c0: 98f7 fbbc 1e28 2abd 9eff 73bb 774f dcbb
000000d0: 561c 9d3b bd4d 98bd cf70 74bd 081a 9c3d
000000e0: 678e f1bd 7b08 c33c 8d6f 943c ba7f 013c
000000f0: 717c a2bd d2ca 983d 72d7 73bc f28b 1bbd
00000100: fa88 9fbb 5b2e 5e3d 37ed 153e 4300 28be
00000110: 4630 ca3d fed8 2e3d 24f8 84bd 7d12 a0bd
00000120: 100d 1f3d 50c1 833c f238 863d b2ee d9bd
00000130: 44ee ee3b 4291 81bd dc20 03be e826 d7bc
00000140: 1ca9 c83c aefa 803d 804f 6b3d 974e f13d
00000150: a560 843d 615c e33c b9d0 e63d 0947 0739
00000160: 805a 5b3a 7230 2fbd cdd2 113e b139 1b3e
00000170: 7e79 62bd cb49 eabd 2bf4 c93c 74a7 a4bd
00000180: c5b6 163d 3da9 043d 4f32 a33d 7a0e 0dbe
00000190: 255c 8ebd beb9 273d 0485 44bb f031 4d3d
000001a0: 6f34 00be beb6 5e3d 6086 27bc 05e6 e8bc
000001b0: fc16 f6bd 5a64 0d3d 96c3 10bb e7bd 5dbe
000001c0: f330 20be cfaf b63c 9ad5 973c caa4 9c3d
000001d0: 155c b9bd 562e 553c 17aa 8f3c f8a4 54bd
000001e0: 12cb adbc 08b6 a43b f3cb 793d 2d10 be3d
000001f0: d73b 98bd ff99 7d3c 68d2 01be 120b 83bd
00000200: 13d7 503d fc4c fe3c 7733 963d 50f8 bf3c
00000210: fffe b5bd a84c 523d 0e0e 97bd e9d2 963c
00000220: d62b d2bc 48ab 44bc bc56 823c 931e 043c
00000230: 65af 28bd 99fd e0bd 8517 993d 0007 8d3c
00000240: c09e c73d 8088 2f3d 0fac 2f3d c741 273e
00000250: 595f 23be 1885 95bd 10fd b0bb 4554 aa3c
00000260: 486d 9e3c 2a64 033e e805 253e 6245 3abd
00000270: e577 97bd 18ab 643d 4446 983d 75f3 033c
00000280: ae0e 24bd dc1c 02be f2e0 fc3d fd9d 393d
00000290: 14f8 a5bd 6f2e 203e 611e 813d de65 083e
000002a0: 0053 52bd 3662 ca3d 865a b83d ca0a c93c
000002b0: 2912 023c f467 94ba c5bb c33d b230 a73c
000002c0: 66d1 c6bd 1380 623d e0d7 6d3c 4c7d 18bd
000002d0: 3b46 423d 5456 b9bd fefc 603d 5ce2 233e
000002e0: ecee 20be 60a2 043e 8424 8f3c 5f0e 6bbd
000002f0: 5bbd b93d 0972 843a 0b57 233d 310d 753c
00000300: 441a f83d ad69 e93d 3223 aebd 4944 cabc
00000310: 9278 8339 2a16 8b3d 91fd 71bd b85a babb
00000320: 7b0b de3d b8dd 23bc e4d9 303d 1377 eabd
00000330: c2dc 453d 6409 783d 65a7 99bc dce5 863d
00000340: effc eabb 1ab2 1e3d 4927 f53c efbf 8dbd
00000350: c0f3 c13d f429 89bd 8a75 f4bc e4b7 10be
00000360: ce22 7b3d 71ca 8bbd e345 0abd 97cc c13d
00000370: bd1b 90bd c9b1 b4bd 0e72 da3c 6535 3c3c
00000380: be2d 5bbd 424b b1bd b908 3f3d 4d07 84be
00000390: e551 043e 8d0f 5d3c 1730 8c3c 222c d53c
000003a0: 5154 243d f7a0 91bd 5042 28bd c294 c73d
000003b0: 0e7a eb3c f46c 663d 505f cebd 4817 f13c
000003c0: d1ec 26be 32e3 56bc aa32 babd b1a4 743d
000003d0: e742 98bc cd48 a73d 0f3c 33be 00ed c53d
000003e0: 64aa 02be 3d5e a23d b305 233e 1991 743d
000003f0: 4298 e33d f95e 0b3e 50cd 76bc ba25 023d

conv_layers.9.bias f4 [32]
-0.0049139354 0.0063000876 0.0054827537 -0.009168807 0.003826359 0.00046828878 0.00020168847 -0.00026231754
0.0044462928 0.0015984392 -0.0020873158 -0.0065036262 0.00062559696 0.008335114 0.0035768016 0.007091672
0.0019807445 0.0063175075 -0.0015891519 0.00075900473 -0.0022743708 -0.0009986507 0.0023122234 -0.0016716464
-0.002150385 0.00021639084 0.0054965066 -0.0050985264 -0.008072857 0.003644913 0.00014315343 -0.0038458318
00000000: 1405 a1bb f770 ce3b aca8 b33b c438 16bc
00000010: a7c3 7a3b a884 f539 567c 5339 aa87 89b9
00000020: 35b2 913b b882 d13a 59cb 08bb 5f1c d5bb
00000030: 1aff 233a 0190 083c c668 6a3b 4261 e83b
00000040: 61cf 013b 1803 cf3b 174b d0ba f2f7 463a
00000050: 9c0d 15bb 28e5 82ba ac88 173b 251b dbba
00000060: 79ed 0cbb f9e6 6239 0a1c b43b 8a11 a7bb
00000070: 0444 04bc 7edf 6e3b 751b 1639 5a0a 7cbb

conv_layers.10.weight f4 [32]
0.9966699 1.0098222 0.99652416 0.99986726 1.0036707 0.9948117 1.0073149 0.996468
1.0015198 0.9925485 1.0060211 0.9976532 0.9938337 1.0061767 0.9995129 1.0038999
0.98985445 1.0073303 1.0050696 1.0056908 1.0075634 0.9987217 1.0171654 0.9884622
1.0010464 0.9951284 0.99935806 1.0017848 0.99155545 0.98250943 0.9973104 0.9987342
00000000: c225 7f3f db41 813f 351c 7f3f 4df7 7f3f
00000010: 4878 803f fbab 7e3f b2ef 803f 8718 7f3f
00000020: cd31 803f a917 7e3f 4dc5 803f 3366 7f3f
00000030: e36b 7e3f 66ca 803f 14e0 7f3f cb7f 803f
00000040: 1a67 7d3f 33f0 803f 1fa6 803f 7aba 803f
00000050: d6f7 803f 3aac 7f3f 7a32 823f dc0b 7d3f
00000060: 4a22 803f bcc0 7e3f eed5 7f3f 7c3a 803f
00000070: 94d6 7d3f bd85 7b3f bc4f 7f3f 0bad 7f3f

conv_layers.10.bias f4 [32]
-0.0066727856 0.0014853282 -0.0086831665 -0.00037630709 0.00516817 0.004835146 0.0026775945 0.0011536529
0.0053006494 -0.008522974 -0.0026535334 -0.0034037493 -0.004689552 0.0077258707 0.0018703645 0.0019735475
-0.0071304045 0.015230429 0.0068996344 0.0031533102 0.003337627 -0.0050568134 0.007111186 -0.010265991
0.008913308 -0.012908135 -0.008829205 0.007095835 -0.002932967 -0.0101405205 -0.0036820166 0.00035717315
00000000: 62a7 dabb 58af c23a d743 0ebc 154b c5b9
00000010: c159 a93b 2570 9e3b 957a 2f3b 2b36 973a
00000020: 12b1 ad3b f2a3 0bbc e7e6 2dbb 7011 5fbb
00000030: d0aa 99bb 4d29 fd3b 0527 f53a a256 013b
00000040: 2ba6 e9bb 0d89 793c 5416 e23b c4a7 4e3b
00000050: 17bc 5a3b a0b3 a5bb f404 e93b b032 28bc
00000060: 2009 123c a47c 53bc 5fa8 10bc 2e84 e83b
00000070: 0537 40bb 6d24 26bc fd4d 71bb f842 bb39

conv_layers.10.running_mean f4 [32]
0.071317986 0.34777296 0.37582996 -0.01487619 0.2155154 0.03833632 -0.05468032 -0.1549564
0.23534587 0.038257744 -0.066895284 0.2252066 0.002859486 -0.1802246 0.28405574 -0.03121667
0.13220222 0.23052083 -0.17513926 0.052786447 -0.10400578 -0.03530715 0.18041326 -0.30851412
-0.062704116 -0.041641306 -0.01622819 0.33695918 0.100077204 -0.1714521 -0.023453854 -0.085365795
00000000: 2a0f 923d 4c0f b23e c96c c03e 43bb 73bc
00000010: 12b0 5c3e 8c06 1d3d 79f8 5fbd e4ac 1ebe
00000020: 82fe 703e 27b4 1c3d 6500 89bd 8f9c 663e
00000030: 3766 3b3b cc8c 38be c16f 913e 1aba ffbc
00000040: 0560 073e a70d 6c3e b557 33be 9a36 583d
00000050: fb00 d5bd 3b9e 10bd 41be 383e 90f5 9dbe
00000060: 046b 80bd 1390 2abd fbf0 84bc ea85 ac3e
00000070: 47f5 cc3d 2491 2fbe 4c22 c0bc 43d4 aebd

conv_layers.10.running_var f4 [32]
0.78051 1.2741303 1.4040161 0.6077402 0.9169533 1.1468842 0.76270294 0.92847204
0.7623508 0.92620206 0.6984646 1.3455231 0.7048826 0.8885776 0.6160444 0.6053696
0.34176087 0.63409346 0.67070955 0.526564 0.68952507 0.57271045 0.74420846 1.0185895
0.86875397 0.5889392 0.49559683 1.6070547 0.5260105 0.7866094 0.4392701 0.680652
00000000: 81cf 473f b416 a33f cdb6 b33f dd94 1b3f
00000010: 74bd 6a3f 1acd 923f 8040 433f 58b0 6d3f
00000020: 6c29 433f 941b 6d3f 93ce 323f 1a3a ac3f
00000030: 3073 343f d279 633f 16b5 1d3f 81f9 1a3f
00000040: 48fb ae3e f353 223f 9fb3 2b3f e6cc 063f
00000050: b784 303f 279d 123f 7284 3e3f 2461 823f
00000060: a966 5e3f b8c4 163f debe fd3e f8b3 cd3f
00000070: a0a8 063f 3c5f 493f 03e8 e03e 363f 2e3f

linear0.weight f4 [200, 800]
-0.07997813 0.03987656 0.04558233 0.0915845 0.0011042546 -0.023910211 0.013117764 0.10557461
0.014727553 0.05810881 -0.021438356 -0.095094234 0.08187591 0.16620581 0.073028386 -0.046627577
-0.025288457 0.17406546 -0.07816357 -0.04455692 0.21193741 0.024847604 -0.013550196 -0.019959202
-0.06709879 0.0413725 0.074665196 -0.09336879 -0.11003155 0.11701922 0.10674531 0.3065851
0.12106147 -0.1357005 0.07202556 -0.044828027 0.039314568 0.076550394 -0.09979944 -0.1596075
0.0872241 0.079391 0.19173224 -0.1492359 -0.030628972 -0.17456867 -0.053486962 -0.067543484
0.12850006 0.11725454 -0.09988443 -0.11217068 -0.0143802175 0.17818019 -0.027724976 -0.06745087
0.0107433265 0.11585417 0.010026243 -0.16499403 0.015226827 0.032452658 0.026694471 0.13436423
-0.1975365 -0.07897217 -0.034408443 0.00828124 -0.06694881 -0.10899714 0.07162903 0.05677926
0.036987234 0.099626064 0.09437962 -0.27681857 0.16942523 -0.014887369 -0.08370185 -0.08590699
-0.023311531 0.033422068 -0.11356835 0.16730751 0.004073522 -0.028691722 0.15659812 0.11974317
0.16653901 -0.019944455 -0.024621265 -0.011882016 -0.010491916 0.026229475 0.09827597 0.01844245
0.10112516 -0.016754419 -0.15631475 -0.075810924 0.01623128 -0.0984468 -0.040334977 0.06344158
0.0036037182 -0.03877811 0.034406014 -0.14941837 -0.0014031412 0.002254653 0.04602355 -0.06696829
0.1683097 -0.15476033 0.18632962 0.074234694 -0.12262273 -0.16240834 -0.018047744 0.0153053515
0.06290086 -0.17567556 0.029661246 0.082764484 0.06258523 -0.09762135 0.13388443 -0.11304188
0.03028995 -0.07525269 0.10174953 -0.05544859 -0.180063 -0.10520069 0.23588972 -0.019066133
-0.21630146 -0.102328524 0.1290151 -0.027542647 0.09764938 -0.10539063 -0.10546908 0.09270945
-0.070553005 -0.030102046 0.065666035 0.0684724 0.044455383 -0.03966775 0.1099329 -0.033125784
0.0062329094 0.103871025 0.18311417 -0.054538917 -0.0651859 0.14486505 -0.17186873 -0.043497723
0.002989238 -0.14846168 -0.108101234 -0.021094458 0.19937952 0.06299757 0.15646286 0.061260525
-0.23087834 -0.059833635 -0.10076141 -0.014779507 -0.12472689 0.105230816 -0.023416115 -0.16106266
-0.12722819 -0.0706131 -0.06769689 0.08239376 -0.15664992 0.076553464 0.13374797 0.23760673
-0.0113629345 0.16049567 -0.12112675 0.07538402 -0.10293472 0.186748 -0.023173913 -0.01955835
-0.010675432 -0.12344637 0.009094175 -0.1303042 -0.09467725 -0.07282467 0.024599882 -0.1503504
-0.12584166 0.018284053 -0.07234049 0.11103815 -0.03116593 -0.023305198 0.1350231 -0.008574037
0.08121314 0.02967613 0.16548368 -0.15296248 0.001204713 -0.12783237 -0.015043016 -0.035319053
-0.14295638 0.010212944 0.016592477 0.039537087 -0.026324688 0.098825924 -0.13711227 -0.04872456
-0.06193923 0.066573136 -0.021997914 -0.06287749 -0.21979411 -0.13976105 0.08665855 -0.029390842
-0.032589722 -0.1698027 0.06256727 0.077063456 0.19005254 0.012172512 -0.07882283 0.058261525
-0.02013045 0.06999321 0.058984183 -0.059662215 0.056273248 0.023742009 -0.093618244 0.06637023
0.015786728 0.019402923 0.09451452 0.08771229 0.058792286 0.037700064 -0.15230697 0.06832385
00000000: 93cb a3bd 9b55 233d 8ab4 3a3d a890 bb3d
00000010: a3bc 903a 59df c3bc e4eb 563c 8037 d83d
00000020: d64b 713c 8103 6e3d 7e9f afbc c4c0 c2bd
00000030: 8fae a73d db31 2a3e e88f 953d 8ffc 3ebd
00000040: bd29 cfbc 373e 323e 3914 a0bd 5181 36bd
00000050: 1f06 593e 348d cb3c a401 5ebc 7b81 a3bc
00000060: 176b 89bd 3676 293d 11ea 983d 2338 bfbd
00000070: 3958 e1bd c6a7 ef3d 499d da3d b9f8 9c3e
00000080: 13ef f73d 12f5 0abe 2382 933d 989d 37bd
00000090: 5008 213d 74c6 9c3d a663 ccbd 2670 23be
000000a0: 8da2 b23d c097 a23d 7555 443e 4cd1 18be
000000b0: 9ce9 fabc 21c2 32be 2515 5bbd 3d54 8abd
000000c0: 8595 033e 2623 f03d 3590 ccbd beb9 e5bd
000000d0: 019b 6bbc de74 363e 7d1f e3bc af23 8abd
000000e0: c704 303c f344 ed3d 1c45 243c 32f4 28be
000000f0: f179 793c 14ed 043d 5dae da3c c796 093e
00000100: 0247 4abe 29bc a1bd deef 0cbd 0aae 073c
00000110: 751c 89bd e439 dfbd 3eb2 923d 5f91 683d
00000120: ed7f 173d c008 cc3d 1a4a c13d 2abb 8dbe
00000130: cf7d 2d3e 27ea 73bc e06b abbd 01f0 afbd
00000140: d3f7 bebc 94e5 083d 8696 e8bd a952 2b3e
00000150: 2e7b 853b e70a ebbc 425b 203e e83b f53d
00000160: 3489 2a3e 8e62 a3bc 89b2 c9bc caac 42bc
00000170: 49e6 2bbc 32df d63c e944 c93d 9f14 973c
00000180: b51a cf3d 9040 89bc f910 20be c242 9bbd
00000190: 76f7 843c 7a9e c9bd 4a36 25bd a9ed 813d
000001a0: 5c2c 6c3b ccd5 1ebd 52ed 0c3d 2101 19be
000001b0: 9be9 b7ba cdc2 133b 3183 3c3d ac26 89bd
000001c0: 6159 2c3e 7e79 1ebe 31cd 3e3e 5c08 983d
000001d0: a021 fbbd 5f4e 26be ddd8 93bc 4cc3 7a3c
000001e0: 2bd2 803d 4be4 33be 24fc f23c 6d80 a93d
000001f0: af2c 803d b4ed c7bd 0019 093e 8082 e7bd
00000200: a122 f83c 151e 9abd 0f62 d03d 101e 63bd
00000210: 6f62 38be 7673 d7bd 138d 713e 9430 9cbc
00000220: 217e 5dbe 9e91 d1bd 891c 043e 1ea1 e1bc
00000230: 66fc c73d 0bd7 d7bd 2c00 d8bd 74de bd3d
00000240: 187e 90bd 9198 f6bc ea7b 863d 423b 8c3d
00000250: d916 363d a77a 22bd 8024 e13d e7ae 07bd
00000260: 6f3d cc3b 55ba d43d 4882 3b3e 3364 5fbd
00000270: 2f80 85bd 8157 143e 5bfe 2fbe ab2a 32bd
00000280: 17e7 433b 5706 18be 2e64 ddbd 49ce acbc
00000290: 252a 4c3e df04 813d cd37 203e 51ec 7a3d
000002a0: 5f6b 6cbe 1d14 75bd 005c cebd bf25 72bc
000002b0: d070 ffbd 4183 d73d 27d3 bfbc 9ced 24be
000002c0: 1b48 02be 9a9d 90bd aba4 8abd 0fbe a83d
000002d0: d668 20be 10c8 9c3d 3af5 083e 2e4f 733e
000002e0: 9a2b 3abc fa58 243e 4d11 f8bd f062 9a3d
000002f0: 70cf d2bd de3a 3f3e 38d7 bdbc d538 a0bc
00000300: 02e8 2ebc 73d1 fcbd bcff 143c 776e 05be
00000310: 25e6 c1bd 1a25 95bd b185 c93c 75f5 19be
00000320: a3dc 00be 70c8 953c 4027 94bd f867 e33d
00000330: b14f ffbc 8bea bebc 7f43 0a3e 1e7a 0cbc
00000340: 1353 a63d 5b1b f33c 8e74 293e 32a2 1cbe
00000350: 76e7 9d3a 7de6 02be fb76 76bc b6aa 10bd
00000360: 2863 12be 3154 273c f2ec 873c a4f1 213d
00000370: dfa6 d7bc 3f65 ca3d 2967 0cbe 6793 47bd
00000380: fdb3 7dbd 7f57 883d f834 b4bc eac5 80bd
00000390: b511 61be 851d 0fbe 0a7a b13d 10c5 f0bc
000003a0: cd7c 05bd c2e0 2dbe 4523 803d 72d3 9d3d
000003b0: 229d 423e 376f 473c dd6d a1bd a3a3 6e3d
000003c0: 9de8 a4bc 9a58 8f3d 6699 713d 5e60 74bd
000003d0: c77e 663d 9a7e c23c ecba bfbd 1ded 873d
000003e0: 2b53 813c e1f2 9e3c d490 c13d 80a2 b33d
000003f0: 2ed0 703d 626b 1a3d 5cf6 1bbe 60ed 8b3d
